saved_model/model_indi.pt (torch_old, 81368 bytes, 7 tensors)

weight_ih_l0 f4 [200, 24]
0	0xbdfd77d4	-0.12376371
1	0xbda21d3c	-0.07915732
2	0xbe9fee02	-0.31236273
3	0xbe9fe934	-0.31232607
4	0xbeb082cd	-0.34474793
5	0xbe993b32	-0.29927975
6	0xbe03abce	-0.12858507
7	0xbec83e3a	-0.39109975
8	0xbdda0dd2	-0.10647167
9	0xbe781656	-0.2422727
10	0xbe12becd	-0.14330597
11	0xbe65dee0	-0.22448301
12	0x3c9bf924	0.019039698
13	0xbe50cfaf	-0.20391725
14	0xbea5738c	-0.32314718
15	0xbebe9aeb	-0.37227568
16	0xbe8ffe57	-0.28123733
17	0xbebc2ab4	-0.3675133
18	0xbea8113f	-0.32825658
19	0xbed1bc47	-0.40963957
20	0xbefaae51	-0.48961118
21	0xbea7df6e	-0.3278765
22	0x3d771ca3	0.060330044
23	0xbe534cf7	-0.20634829
24	0x3e6f0201	0.23340608
25	0x3e6b85bb	0.23000233
26	0xbe2f67eb	-0.17129485
27	0xbe8e6c2b	-0.278169
28	0xbe84c5e5	-0.25932232
29	0x3ebcc88a	0.3687175
30	0x3e372ec2	0.1788893
31	0xbe4bd31c	-0.1990475
32	0xbe544c73	-0.20732288
33	0xbec54d2b	-0.38535437
34	0xbe212704	-0.1573754
35	0x3c4ac332	0.01237564
36	0x3bcab2f8	0.0061858855
37	0xbd3127d6	-0.04325088
38	0x3e1f84a5	0.15577944
39	0x3edd2c1e	0.4319772
40	0x3e7a5424	0.2444616
41	0x3b1c776c	0.0023874892
42	0x3d0cde77	0.034391847
43	0xbed4ce9e	-0.41563886
44	0x3fe31aba	1.7742531
45	0x3ef6207f	0.48071668
46	0xbeb1c948	-0.34723878
47	0xbcb2bb2a	-0.021817762
48	0x3e9eae2f	0.30992267
49	0x3e440ce4	0.19145542
50	0x3e018dae	0.12651703
51	0x3ea1f2dc	0.316306
52	0x3e373527	0.1789137
53	0xbd395709	-0.04524902
54	0x3d4b207c	0.049591526
55	0x3df88973	0.12135591
56	0xbc4ca982	-0.012491586
57	0x3dad0528	0.08448249
58	0xbd9f2653	-0.07770982
59	0x3cf439fb	0.029812803
60	0x3ea75db7	0.32688686
61	0x3e79c15d	0.24390168
62	0x3eb45686	0.35222262
63	0x3e5e7af0	0.21726584
64	0x3e301849	0.17196764
65	0x3e10091f	0.1406598
66	0x3d57c57c	0.05267857
67	0x3df24911	0.118303426
68	0xbe23d369	-0.15998615
69	0x3f244817	0.641725
70	0x3f1d122a	0.6135584
71	0xbecc8b55	-0.39950052
72	0xbed004b0	-0.40628576
73	0xbee66e78	-0.45006156
74	0xbdf56f55	-0.119841255
75	0xbc2d6d46	-0.010585135
76	0xbdc24bb4	-0.094870955
77	0xbf0d897b	-0.55287904
78	0xbeb48b7d	-0.3526267
79	0xbf0b2b1c	-0.54362655
80	0xbf0856d6	-0.532575
81	0xbf07b686	-0.53012884
82	0xbe1ccf54	-0.15313464
83	0xbe622955	-0.2208608
84	0xbeb2f15c	-0.34949768
85	0xbd9a0eb0	-0.07522333
86	0x3b0acdcb	0.002117979
87	0xbec2114e	-0.37903827
88	0xbeffa495	-0.49930254
89	0xbf09b93b	-0.53798264
90	0xbedcd13d	-0.43128386
91	0xbf2c95ad	-0.6741589
92	0xbf81e344	-1.0147481
93	0xbf3ab91e	-0.72938716
94	0xbf10fb7e	-0.56633747
95	0xbed73c14	-0.42038023
96	0xbf2ae031	-0.6674834
97	0xbf250d90	-0.6447382
98	0x3de242aa	0.110478714
99	0xbd4c053e	-0.049809687
100	0xbefe687b	-0.49689087
101	0xbeda7814	-0.42669737
102	0xbe9d27c4	-0.306944
103	0xbe9cdf10	-0.30638933
104	0xbea412e2	-0.32045656
105	0x3e837ab1	0.25679544
106	0xbdb236e4	-0.08701876
107	0xbee61b35	-0.44942632
108	0xbe9f6397	-0.3113067
109	0xbdbff0e9	-0.09372122
110	0xbe2d4fe1	-0.16925003
111	0xbeefbbfb	-0.46823105
112	0xbe653c23	-0.22386222
113	0xbe32287b	-0.17398255
114	0xbeacca2b	-0.33747992
115	0xbd518930	-0.051156223
116	0xbfc4a6a9	-1.5363361
117	0x3fb7e409	1.4366466
118	0xbf92dfaa	-1.1474507
119	0x3e582dd5	0.21111234
120	0xbed6b3f6	-0.41934174
121	0xbebf398d	-0.37348595
122	0xbe5fd23e	-0.21857545
123	0xbec00c24	-0.37509263
124	0xbed8fc86	-0.4238016
125	0xbedd8f14	-0.43273222
126	0xbea8d479	-0.32974604
127	0xbf006779	-0.50157887
128	0xbec5ada2	-0.38609034
129	0xbeaef9b7	-0.34174892
130	0xbe9cbb12	-0.30611473
131	0xbe713d09	-0.2355844
132	0xbec7cf3c	-0.39025295
133	0xbe9f2754	-0.31084692
134	0xbe60a04f	-0.21936153
135	0xbec04f97	-0.37560722
136	0xbed3d013	-0.41369686
137	0xbec4c4fa	-0.3843153
138	0xbedabe7a	-0.42723447
139	0xbeeead31	-0.4661651
140	0x3f477274	0.77909017
141	0x3e5f7f0a	0.21825805
142	0xbf36b322	-0.71367085
143	0xbe2833a7	-0.16425954
144	0xbf1912d2	-0.5979434
145	0xbea1fa2c	-0.31636178
146	0x3c16f308	0.009213217
147	0xbd4ae114	-0.049531057
148	0x3e704f03	0.2346764
149	0x3e03ae8d	0.12859555
150	0xbec37b6a	-0.38180095
151	0x3d0d6121	0.034516457
152	0x3dec47ee	0.11537157
153	0x3e7d352d	0.24727316
154	0x3d68e721	0.056861047
155	0xbeab0039	-0.33398607
156	0xbe2e8517	-0.17042957
157	0xbe829f32	-0.2551208
158	0x3e8ed73a	0.2789858
159	0xbc99c79d	-0.01877194
160	0x3da7c658	0.08192128
161	0x3e8abb05	0.2709581
162	0x3e7e2c22	0.24821523
163	0x3e394b73	0.18095188
164	0xbfb4e0cd	-1.4131104
165	0xbf713ac2	-0.9423028
166	0x3e6b9238	0.23004997
167	0xbfdfc666	-1.7482421
168	0x3e2a3cbc	0.16624731
169	0x3d6e1eb0	0.058134735
170	0x3d84cf23	0.06484821
171	0x3df1f5a8	0.11814433
172	0x3e05e828	0.13076842
173	0x3ea13eb6	0.31493157
174	0x3e9717a1	0.29510215
175	0x3d132dbf	0.0359323
176	0x3efafe12	0.49021965
177	0x3ebc3e07	0.36766073
178	0x3e738f27	0.23785077
179	0x3e9ce773	0.30645332
180	0x3eb17edb	0.34667096
181	0x3e8c9a8f	0.2746167
182	0x3f020845	0.5079387
183	0x3f3c73a3	0.7361395
184	0x3f3fc987	0.7491688
185	0x3f1f1528	0.62141657
186	0x3f28c2a9	0.6592203
187	0x3e837367	0.25673983
188	0xbe7d4a44	-0.24735361
189	0xbf3219bb	-0.6957051
190	0xbda5e282	-0.080998436
191	0x3f35692b	0.708636
192	0x3e59535f	0.2122321
193	0x3de206bc	0.11036441
194	0xbd3e0b25	-0.046397347
195	0x3dcc5b15	0.0997831
196	0x3df70df3	0.120632075
197	0xbe29ba62	-0.16575006
198	0xbe1478eb	-0.14499252
199	0xbe5d24d2	-0.21596077
200	0xbeb5be9b	-0.35496983
201	0xbe9a55c0	-0.30143547
202	0x3e31c5d4	0.17360622
203	0x3d984a2e	0.07436024
204	0x3dc62561	0.09675098
205	0x3e300105	0.17187889
206	0x3eaf9b0d	0.34297982
207	0xbd8bc535	-0.06824724
208	0xbda64204	-0.0811806
209	0xbe6afdea	-0.22948423
210	0xbe65003b	-0.22363369
211	0xbeba3163	-0.36365804
212	0xbe9b6317	-0.30349037
213	0xbe83f55f	-0.2577314
214	0x3e18271b	0.14858668
215	0xbe0731d4	-0.13202602
216	0x3c49cfce	0.012317611
217	0xbf4f1b99	-0.80901486
218	0xbf27471d	-0.65342885
219	0xbf7cf15a	-0.98805773
220	0xbf6aede2	-0.9176923
221	0x3e618235	0.22022326
222	0x3f2a6537	0.6656069
223	0xbdb535cb	-0.08848151
224	0x3efc3cc9	0.49265125
225	0x3f2260bb	0.6342885
226	0xbd4505bc	-0.04810117
227	0xbeb78281	-0.35841754
228	0xbf34f205	-0.7068179
229	0xbf1fd96d	-0.6244114
230	0xbe66104a	-0.22467151
231	0x3f817833	1.0114807
232	0x3f1672c4	0.5876887
233	0x3f1eb76a	0.6199862
234	0x3f570936	0.8399843
235	0x3f43f4c7	0.76545376
236	0x3f35abc8	0.7096524
237	0xbf32be02	-0.6982118
238	0xbeabdbd2	-0.33566147
239	0x3f890ac9	1.0706416
240	0xbe86ac30	-0.26303244
241	0xbdcc1bff	-0.09966277
242	0xbe165c71	-0.14683701
243	0x3dcbd38d	0.099524595
244	0xbdd44a9f	-0.10365795
245	0xbf8e272d	-1.1105705
246	0xbf744c6c	-0.9542911
247	0xbf430ef8	-0.76194715
248	0xbf438c9e	-0.7638644
249	0xbf562e35	-0.83664256
250	0xbebc84b3	-0.3681999
251	0xbe430fad	-0.19048949
252	0xbd8e3544	-0.06943753
253	0xbeab4dfb	-0.33457932
254	0xbf28db62	-0.6595975
255	0xbf40519c	-0.75124526

weight_hh_l0 f4 [200, 50]
0	0xbf0b1ea1	-0.5434361
1	0x3dfd0ba5	0.12355737
2	0x3e39740b	0.18110673
3	0xbe8eb2ac	-0.2787069
4	0xbeacd332	-0.3375488
5	0xbebc234f	-0.36745688
6	0x3f765ca9	0.9623514
7	0xbea61539	-0.32438067
8	0x3d5263b6	0.051364623
9	0xbf81256c	-1.0089545
10	0xbf56133f	-0.8362312
11	0x3e1d554c	0.1536457
12	0x3e6cab69	0.23112263
13	0xbe78c14c	-0.24292487
14	0xbe78953b	-0.24275677
15	0x3f4693b2	0.77569115
16	0x3f0252a1	0.5090733
17	0xbe553d48	-0.20824158
18	0xbe5103bd	-0.20411582
19	0xbe206fa0	-0.15667582
20	0xbf052bce	-0.52019966
21	0x3e5ad683	0.21370892
22	0x3a946ba1	0.001132358
23	0x3e04b6d4	0.12960368
24	0xbede1d9f	-0.43381974
25	0x3f228dbc	0.6349752
26	0xbf0f1dba	-0.55904734
27	0x3e967bc0	0.2939129
28	0x3de66f2a	0.112516716
29	0xbdcc3534	-0.09971085
30	0xbf5a39e8	-0.8524461
31	0x3db0b1fe	0.08627699
32	0xbfb1d6a3	-1.3893627
33	0x3dfa1050	0.122101426
34	0x3e5dfd30	0.21678615
35	0x3eb20ac2	0.34773833
36	0xbe924a6c	-0.28572404
37	0xbdd9e8a7	-0.10640078
38	0x3ecff97e	0.40620035
39	0xbe8f8321	-0.2802973
40	0x3f56ad12	0.83857834
41	0xbed810bc	-0.42200267
42	0xbe60b139	-0.21942605
43	0x3d824ed2	0.0636269
44	0x3e6890f4	0.22711545
45	0x3d61dac9	0.05514029
46	0xbee641d7	-0.44972107
47	0xbf2f762e	-0.685397
48	0x3e2710ab	0.16314952
49	0x3dd4b7b0	0.10386598
50	0xbf73f417	-0.95294327
51	0x3f816dd3	1.0111641
52	0xbe94cc13	-0.29061946
53	0xbf6f0709	-0.9337011
54	0x3f2cdbfd	0.67523175
55	0xbd8832f1	-0.06650341
56	0x3f16da42	0.58926785
57	0xbf2a0fe2	-0.66430485
58	0xbfb3b7eb	-1.4040502
59	0x3fa36980	1.2766571
60	0x3ea53324	0.3226558
61	0x3eb91397	0.36147758
62	0xbe72bf43	-0.23705773
63	0xbf0fceb5	-0.56174785
64	0xbf439068	-0.7639222
65	0x3e58554e	0.21126291
66	0x3f7244c5	0.94636184
67	0x40252aa3	2.5807273
68	0x3e1fca8e	0.15604612
69	0x3f324033	0.6962921
70	0x3e955648	0.2916739
71	0x3d91abb5	0.07112829
72	0xbe40308f	-0.18768524
73	0x3f6b1569	0.91829544
74	0xbf28b462	-0.6590024
75	0x3f0a09d2	0.53921235
76	0x3ee11340	0.4396
77	0xbc33b114	-0.010967512
78	0x3f5d5818	0.86462545
79	0xbe853a89	-0.2602122
80	0xbe9db184	-0.30799496
81	0x3e834df0	0.256454
82	0xbf0bf5de	-0.5467204
83	0x3d25f5dd	0.040517677
84	0x3f467402	0.77520764
85	0x3f11b6ae	0.5691937
86	0x3ee1f512	0.44132286
87	0x3dfb9500	0.12284279
88	0x3dfb9581	0.12284375
89	0x3eba6e23	0.36412153
90	0x3eb741e1	0.3579245
91	0xbf017386	-0.505669
92	0x3f4fba7d	0.81143934
93	0xbeeeea79	-0.46663263
94	0xbfba2f31	-1.4545652
95	0xbe59b150	-0.21259046
96	0xbed185b7	-0.4092233
97	0xbf9cda4d	-1.225412
98	0x3ecf3d0c	0.40476263
99	0xbdd2c768	-0.1029194
100	0xbf0e0d62	-0.5548917
101	0x3eff0b47	0.4981329
102	0xbe39471a	-0.1809353
103	0xbf26e286	-0.651894
104	0xbd07ced2	-0.033156224
105	0xbee80546	-0.45316523
106	0x3fa90698	1.3205137
107	0xbe411e2a	-0.18859163
108	0xbf3da6b0	-0.7408247
109	0x3e5e9d9a	0.21739808
110	0x3e7b17d2	0.24520805
111	0xbfb81f8a	-1.4384625
112	0x3eb2a71b	0.34893116
113	0x3e4f30a0	0.20233393
114	0xbf685bcd	-0.90765077
115	0x3eaa2585	0.3323175
116	0x3ed66153	0.41871127
117	0x3f974ea9	1.182088
118	0x3ceefab5	0.02917228
119	0x3eac698b	0.33674273
120	0xbda1ec0a	-0.07906349
121	0x3c812572	0.015764926
122	0x3d28de6f	0.041227754
123	0x3f106d6b	0.5641696
124	0xbf28c09b	-0.6591889
125	0x3eb8d1fa	0.360977
126	0x3ebd687e	0.36993784
127	0x3ecfeb17	0.40609047
128	0x3f772e49	0.96555
129	0xbef7a28f	-0.4836621
130	0x3eb547d6	0.3540637
131	0x3e46273e	0.19350907
132	0xbf1ea572	-0.619712
133	0xbcb50cac	-0.022100769
134	0xbc784ad5	-0.01515456
135	0x3e56ef53	0.20989732
136	0xbdddde29	-0.10833389
137	0x3dac5295	0.08414189
138	0x3eaae107	0.33374807
139	0xbda8660d	-0.0822259
140	0x3f233f1a	0.6376816
141	0x3e7afcb5	0.24510463
142	0x3fb20325	1.390721
143	0xbf0436d4	-0.5164616
144	0xbf069bf8	-0.5258174
145	0x3ecb4c5f	0.39706704
146	0xbf20dbbe	-0.628353
147	0xbed9ff75	-0.4257771
148	0x3fc418ca	1.5320065
149	0x3e56c0b0	0.20971942
150	0xbec70891	-0.38873723
151	0x3f1fb4bd	0.6238516
152	0x3edaf33d	0.427637
153	0xbeba2716	-0.36357945
154	0x3f60e1c0	0.8784447
155	0x3d99ed67	0.07515984
156	0xbe940968	-0.28913426
157	0xbda6e34e	-0.08148824
158	0xbfb775bd	-1.4332806
159	0x3d235403	0.03987504
160	0x3f7c8246	0.9863628
161	0x3f004167	0.50099796
162	0x3cf30c08	0.029668823
163	0xbee73718	-0.4515922
164	0xbcc5a54b	-0.02412667
165	0x3e842a73	0.25813636
166	0x3eaca682	0.33720785
167	0xbea19d42	-0.3156529
168	0x3d66251b	0.05618773
169	0x3f44b045	0.76831466
170	0x3e8acedf	0.27110955
171	0x3ef5e76f	0.48028132
172	0xbe8d3999	-0.27583006
173	0xbe875aa6	-0.26436347
174	0x3f8e9a92	1.1140921
175	0x3e98cdd8	0.29844546
176	0x3f94d749	1.16282
177	0xbf10272d	-0.5630978
178	0x3f957f1f	1.1679419
179	0xbfa40263	-1.2813228
180	0xbe3504e3	-0.17677645
181	0x3ebfa7e7	0.37432787
182	0xbd3f39a5	-0.046685833
183	0xbd02aab7	-0.031901088
184	0xbe2a5751	-0.16634871
185	0xbdb5703a	-0.08859296
186	0x3bf4e247	0.0074732634
187	0x3ec9c1b3	0.39405593
188	0x3ed02eaf	0.40660617
189	0xbc8f7c2f	-0.01751527
190	0x3f0cf494	0.55060697
191	0xbe98be61	-0.29832748
192	0x3cb72b72	0.022359584
193	0xbe7d62ec	-0.24744767
194	0xbd90793d	-0.07054374
195	0x3ecd37ed	0.4008173
196	0xbf345e49	-0.7045637
197	0xbf04c269	-0.51859146
198	0x3ee957da	0.45574838
199	0xbea5a18f	-0.32349822
200	0xbf95bf54	-1.1699014
201	0x3e13f1e7	0.14447747
202	0x3f4e6197	0.8061766
203	0xbecc527b	-0.39906678
204	0x3eab774d	0.33489457
205	0xbef71d30	-0.48264456
206	0x3e842c4e	0.25815052
207	0xbea76a4c	-0.32698286
208	0xbf8625b8	-1.0480261
209	0x3e50582e	0.20346138
210	0xbf127014	-0.5720227
211	0xbf8a90d0	-1.0825443
212	0x3ebafa71	0.36519197
213	0x3ebb0f41	0.36535075
214	0x3f347636	0.70492876
215	0x3ba44ed4	0.00501428
216	0xbe1e92f1	-0.15485741
217	0x3f19c3e5	0.60064536
218	0xbdfcee2e	-0.12350117
219	0xbefd7115	-0.49500337
220	0x3bfc86b5	0.007706488
221	0x3f9b5185	1.2134253
222	0xbed6b8a9	-0.4193776
223	0x3fccb42b	1.5992483
224	0xbd88c8d8	-0.06678933
225	0x3f094e14	0.5363476
226	0x3e8ef544	0.27921498
227	0x3f622019	0.8833023
228	0x3e7e7e4c	0.24852866
229	0xbf0a3fa8	-0.5400338
230	0x3fe31023	1.77393
231	0x3e2a3ad7	0.16624008
232	0x3ea2cfaf	0.31799075
233	0xbf93319e	-1.1499517
234	0x3df793d4	0.12088743
235	0x3f130d88	0.5744252
236	0xbcb87c46	-0.022520196
237	0x3f0a53f7	0.5403437
238	0x3eca9bfe	0.39572138
239	0x3e71adae	0.2360141
240	0x3f9553e4	1.1666226
241	0x3e1f1fc9	0.15539469
242	0x3f31ddfa	0.69479334
243	0xbb46a50e	-0.0030310783
244	0x3e07b0a6	0.1325098
245	0x3e3ef2df	0.18647335
246	0xbf862ebb	-1.0483011
247	0x3e2764ae	0.16347
248	0xbf8931c2	-1.071831
249	0xbf249198	-0.6428466
250	0xbdf66a35	-0.12031976
251	0x3dc29176	0.09500401
252	0x3d10e888	0.03537801
253	0xbef4c920	-0.47809696
254	0x3f448cc7	0.7677731
255	0xbe94df3c	-0.29076564

bias_ih_l0 f4 [200]
0	0xbef7924d	-0.48353806
1	0xbfbe250a	-1.4855053
2	0xbf37ee15	-0.7184766
3	0xbf8d27a4	-1.1027722
4	0xbf03e53e	-0.5152167
5	0xbf499bec	-0.7875354
6	0xbf051cce	-0.5199708
7	0xbff0c3e5	-1.8809782
8	0xbf306613	-0.6890575
9	0xbed95cac	-0.42453516
10	0xbfff7990	-1.9958973
11	0x3da2b4e4	0.079446584
12	0xbf6b4451	-0.9190112
13	0xc0302808	-2.7524433
14	0xbfd23311	-1.6421834
15	0xbfd09787	-1.6296242
16	0xbf54be5b	-0.8310296
17	0x3f4407db	0.76574486
18	0xbf260442	-0.64850247
19	0xc013ab4b	-2.30733
20	0xc02294ef	-2.5403402
21	0xbfa53652	-1.2907202
22	0xbf7fced2	-0.9992496
23	0xbfad30ff	-1.3530577
24	0xbfb5ac4d	-1.4193207
25	0xbfa5292b	-1.2903188
26	0xbfb3818a	-1.4023907
27	0xbf50875b	-0.81456536
28	0xbf4b0392	-0.7930232
29	0xbf3eaeda	-0.7448555
30	0xbf883884	-1.0642247
31	0xbfa8de35	-1.3192812
32	0x3f53c46a	0.8272158
33	0x3eb4da30	0.35322714
34	0xc0370a23	-2.8599937
35	0xc01e53b0	-2.4738579
36	0xbf90410f	-1.1269854
37	0xbfb364d8	-1.401515
38	0xbf9015a6	-1.1256607
39	0xbf87c17b	-1.060592
40	0xbed02fec	-0.4066156
41	0xbf960a0e	-1.1721818
42	0xbf6078d3	-0.87684363
43	0xbf7dce8a	-0.9914328
44	0xc0306860	-2.7563705
45	0xbfd8f1d1	-1.6948797
46	0xbf6ab307	-0.91679424
47	0xc0471c8f	-3.111118
48	0xbf90de77	-1.1317891
49	0xbfeadcd0	-1.8348637
50	0xbf74e60d	-0.9566353
51	0xbeef324f	-0.4671807
52	0xbf40b96d	-0.7528294
53	0xbf22266b	-0.6333987
54	0xbf6299c1	-0.8851586
55	0xbf9b1b2a	-1.2117665
56	0xbf4c93c4	-0.7991297
57	0xbf6b2b27	-0.9186272
58	0xbef05bea	-0.46945125
59	0xbc79ccb1	-0.015246556
60	0xbfff8bb2	-1.9964507
61	0xbf417edf	-0.75584215
62	0xbe5ae628	-0.2137686
63	0x3fc801ba	1.5625527
64	0xbf8b1549	-1.0865871
65	0xbe8d2698	-0.27568507
66	0xbfc4455e	-1.5333669
67	0xbe7784a9	-0.241717
68	0xbf8d62fa	-1.104583
69	0xbe95060a	-0.2910617
70	0xbf2f678a	-0.68517363
71	0xbe8732f2	-0.26406056
72	0xbf120511	-0.5703898
73	0xbe502404	-0.20326239
74	0xbf928a0c	-1.1448379
75	0xbf3398cd	-0.7015503
76	0xbf889ee6	-1.0673492
77	0xbeb1fcf5	-0.34763303
78	0xbf52b26c	-0.823035
79	0xbf1aa8f2	-0.6041404
80	0xbfd7873c	-1.6838145
81	0xbea4036a	-0.32033855
82	0xbf2eeda3	-0.68331355
83	0x3e151314	0.14558059
84	0xbf5a4468	-0.8526063
85	0xbf26a740	-0.65098953
86	0xbf6b994f	-0.92030805
87	0xbfa4e187	-1.2881325
88	0xbf732c42	-0.9498941
89	0xbe741d3c	-0.23839277
90	0xbf40bfaa	-0.75292456
91	0x3d52bdb9	0.051450465
92	0xbff9c5cc	-1.9513488
93	0xbf6621bd	-0.8989523
94	0x3ec76365	0.3894302
95	0xbf079dee	-0.52975357
96	0xbf09a8a8	-0.53772974
97	0xbdd82661	-0.10554195
98	0xbf60b6e6	-0.8777908
99	0xbecbb692	-0.39787728
100	0x3eb0fe74	0.34569132
101	0x3e94b55f	0.29044625
102	0xbef3bdcd	-0.47605744
103	0x3ed65fdd	0.41870013
104	0xbebfc582	-0.37455374
105	0x3ed11c79	0.40842035
106	0xbe64e0a8	-0.22351325
107	0xbdf006ef	-0.117200725
108	0x3e8f9f39	0.28051165
109	0xbf0e1272	-0.55496895
110	0xbf26933a	-0.650684
111	0xbd627664	-0.055288687
112	0x3f076e5f	0.5290279
113	0x3fa0ff81	1.2577974
114	0x3ee8ddbd	0.45481673
115	0x3f261bd5	0.6488622
116	0xbec0c1fb	-0.37647995
117	0xbe25d903	-0.16196065
118	0xbcc9b764	-0.02462358
119	0xbf25b6f8	-0.64732313
120	0xbec88d96	-0.39170521
121	0x3f9626f5	1.1730639
122	0x3d5d6a5c	0.05405651
123	0x3ef97425	0.48721424
124	0xbf23b790	-0.6395197
125	0xbe850e88	-0.2598765
126	0x3e664a70	0.22489333
127	0x3ebfb9e5	0.37446514
128	0x3dc554aa	0.09635289
129	0x3e3b4258	0.18287027
130	0x3f3f8178	0.7480693
131	0xbf1a0398	-0.60161734
132	0xbdf0a865	-0.11750869
133	0x3d408f49	0.047011647
134	0x3e889145	0.26673332
135	0x3823243b	3.889597e-05
136	0x3eb0e0da	0.34546548
137	0x3f3d33fc	0.73907447
138	0xbcaac2bf	-0.020844815
139	0x3c76c111	0.015060679
140	0xbf2b351a	-0.668779
141	0x3dbe8842	0.09303333
142	0x3e4effa3	0.20214705
143	0x3d18be4a	0.03729085
144	0x3f0d0eb3	0.55100554
145	0x3e54b7d2	0.20773247
146	0x3ef5353f	0.47892186
147	0xbeaa2416	-0.33230656
148	0x3d4739ec	0.048639223
149	0x3f794f44	0.97386575
150	0xbf5454fd	-0.8294218
151	0xbf55d9c2	-0.835354
152	0xbf7d4ec1	-0.98948294
153	0xbf3366b6	-0.700786
154	0xbf2d7f21	-0.6777211
155	0xbfa87881	-1.3161775
156	0xbfe6f51c	-1.8043551
157	0xc058cc92	-3.387486
158	0xbf87930f	-1.0591754
159	0xbf3d6802	-0.7398683
160	0xbea64351	-0.32473233
161	0xbdfbba86	-0.12291436
162	0xbf28ea6d	-0.65982705
163	0x3d399e98	0.045317262
164	0xbf4de74a	-0.80431044
165	0x3df9aa0e	0.121906385
166	0xbf11eb81	-0.56999975
167	0xbece33f2	-0.40274006
168	0xbfd3d654	-1.6549783
169	0xbf31e774	-0.69493794
170	0xbe1318d2	-0.14364937
171	0xbfce291e	-1.6106298
172	0xbee6b78e	-0.45061916
173	0xbda0df3d	-0.07855079
174	0xbee4bff5	-0.44677702
175	0xbefb3464	-0.49063408
176	0xbf8d22b3	-1.1026214
177	0x3e06d8d5	0.13168652
178	0xbf55188e	-0.8324059
179	0xbf3e606b	-0.7436587
180	0xbf896ca0	-1.0736275
181	0x3eaf8b9c	0.342862
182	0xbf7918c1	-0.97303396
183	0xbf96b90c	-1.1775222
184	0xbfbb2ff7	-1.4624013
185	0xbf3611ad	-0.7112072
186	0xbf58d6d1	-0.84702784
187	0xbf84acef	-1.0365275
188	0xbf9ce8d0	-1.2258549
189	0xbf998bc6	-1.199578
190	0xbf5da1ea	-0.86575186
191	0xbe0ab0c7	-0.13543998
192	0xbf8486f5	-1.0353686
193	0xbf3a205b	-0.7270562
194	0x3c1ce879	0.00957691
195	0xbf0081d7	-0.5019812
196	0xbf83d374	-1.0298905
197	0xbf2bd090	-0.67115116
198	0x3ec22e67	0.37926027
199	0xc05269bd	-3.2877038

bias_hh_l0 f4 [200]
0	0xbedd9a02	-0.4328156
1	0xbfc6b016	-1.5522487
2	0xbf3d0e21	-0.73849684
3	0xbf943322	-1.1578104
4	0xbf07843a	-0.52936137
5	0xbf30b16c	-0.69020724
6	0xbf17a75a	-0.59239733
7	0xbfd7dfa4	-1.6865125
8	0xbee85d62	-0.45383745
9	0xbe497910	-0.19675088
10	0xc00742d0	-2.113453
11	0xbd650c22	-0.055919774
12	0xbf60570b	-0.8763282
13	0xc025aa5a	-2.5885224
14	0xbfc886d9	-1.5666152
15	0xbfe376c1	-1.7770616
16	0xbf1413e4	-0.5784285
17	0x3f3033e9	0.6882921
18	0xbf62d1ec	-0.88601565
19	0xc01dc215	-2.4649708
20	0xc02a4597	-2.6604974
21	0xbfa9658a	-1.3234112
22	0xbf813740	-1.0094986
23	0xbfab8719	-1.3400604
24	0xbfbe4f29	-1.4867908
25	0xbf8b5b1f	-1.0887183
26	0xbf9cb5fa	-1.2243035
27	0xbf42c57d	-0.76082593
28	0xbf55b500	-0.8347931
29	0xbf55de44	-0.83542275
30	0xbf8c23b7	-1.0948399
31	0xbf9f8867	-1.2463502
32	0x3f7cc3d4	0.9873631
33	0x3e1a605c	0.1507582
34	0xc0386f9c	-2.881812
35	0xc01d6ad2	-2.4596448
36	0xbf94c6d2	-1.1623175
37	0xbfac489c	-1.3459659
38	0xbf9a581c	-1.2058139
39	0xbf5a8bb9	-0.8536945
40	0xbee9d48a	-0.45669967
41	0xbf984bd0	-1.1898136
42	0xbf6ba1e5	-0.92043906
43	0xbf4d2021	-0.8012715
44	0xc0375b1e	-2.8649364
45	0xbfe38721	-1.7775613
46	0xbf530541	-0.8242989
47	0xc03ba53d	-2.9319603
48	0xbf984315	-1.1895472
49	0xbfe08b14	-1.7542443
50	0xbf47ab32	-0.779956
51	0xbf0abb18	-0.5419173
52	0xbf1219a9	-0.57070404
53	0xbf1e3a9b	-0.61808175
54	0xbf3e1c6a	-0.74262106
55	0xbf96607a	-1.1748192
56	0xbf8292bd	-1.0201031
57	0xbf48ead1	-0.784833
58	0xbe6e95fd	-0.23299403
59	0xbd4051e6	-0.046953104
60	0xbff50eeb	-1.9145178
61	0xbf458abd	-0.7716482
62	0xbed87e61	-0.4228392
63	0x3fb480d6	1.4101818
64	0xbf7f2be8	-0.9967637
65	0xbe7bfa94	-0.24607307
66	0xbfc714cc	-1.5553222
67	0xbe66a620	-0.22524309
68	0xbf8b3934	-1.0876832
69	0xbea134ac	-0.31485498
70	0xbf2bb384	-0.67070794
71	0xbeb71518	-0.3575828
72	0xbf1da1f1	-0.6157523
73	0xbe055f88	-0.13024724
74	0xbfa7313b	-1.3061899
75	0xbf4bdc7f	-0.79633325
76	0xbf92f0a4	-1.1479688
77	0xbf002221	-0.50052077
78	0xbf2fc6c0	-0.68662643
79	0xbf4aded4	-0.7924626
80	0xbfc5dc98	-1.5457945
81	0xbebcb01d	-0.36853114
82	0xbf263a3d	-0.64932615
83	0x3ea6bbee	0.32565254
84	0xbf69eb5c	-0.91374755
85	0xbf05264e	-0.52011573
86	0xbf525e2b	-0.8217494
87	0xbf8483f5	-1.035277
88	0xbf6feb00	-0.93717957
89	0xbcf1679c	-0.02946835
90	0xbf0ec2a6	-0.5576576
91	0x3e27311b	0.16327326
92	0xc0038ec9	-2.05559
93	0xbf709d87	-0.9399037
94	0x3ef19739	0.47185686
95	0xbf06fe30	-0.5273161
96	0xbf233f0c	-0.63768077
97	0x3c581eea	0.013190964
98	0xbf65caf3	-0.897628
99	0xbf2350bb	-0.6379506
100	0x3e62fbfe	0.2216644
101	0x3e49380e	0.1965029
102	0xbef3c0e9	-0.47608116
103	0x3e88f0c2	0.26746184
104	0xbebb107e	-0.3653602
105	0x3f07ede6	0.5309738
106	0xbd9204b2	-0.07129802
107	0xbe301147	-0.17194091
108	0x3e47aa6c	0.19498605
109	0xbf455372	-0.7708045
110	0xbf67bc7f	-0.90522
111	0x3d6d6f6b	0.057967585
112	0x3ebdca3d	0.37068358
113	0x3f942ad9	1.1575576
114	0x3edd7861	0.43255904
115	0x3f002395	0.50054294
116	0xbeade39d	-0.33962718
117	0xbec6e23c	-0.38844478
118	0x3d96a9ae	0.073565826
119	0xbf4b1702	-0.7933198
120	0xbeba126a	-0.36342174
121	0x3f8ae657	1.0851544
122	0xbcbe3aab	-0.023221334
123	0x3eed3e89	0.46336773
124	0xbf3138bb	-0.6922719
125	0xbe627203	-0.22113805
126	0x3ed28400	0.41116333
127	0x3ee7b7f4	0.45257533
128	0x3dbe428a	0.09290035
129	0x3d065bd8	0.032802433
130	0x3f5b4347	0.8564953
131	0xbf2581d6	-0.6465124
132	0xbd784ee8	-0.060622126
133	0xba85e6f4	-0.0010215924
134	0x3e961e9d	0.2932023
135	0x3e1fa7ec	0.15591401
136	0x3e902627	0.28154108
137	0x3f2b50e0	0.6692028
138	0xbe4e0228	-0.2011801
139	0xbd8b5936	-0.06804125
140	0xbf381c24	-0.7191794
141	0x3daaf03d	0.08346603
142	0x3dbd0ee9	0.092313595
143	0xbe43588e	-0.1907675
144	0x3f283635	0.65707713
145	0x3ebcacee	0.36850685
146	0x3ed8df8f	0.42358062
147	0xbe6cd4e6	-0.2312809
148	0x3dc6d72b	0.09709009
149	0x3f829484	1.0201573
150	0xbf6846bf	-0.9073295
151	0xbf4b8ab3	-0.79508513
152	0xbf95e0d1	-1.1709234
153	0xbf1aa556	-0.6040853
154	0xbf2f2ee3	-0.6843092
155	0xbfb46ffb	-1.4096674
156	0xbfd02c6a	-1.6263554
157	0xc0563aa0	-3.3473282
158	0xbf8d2b59	-1.1028854
159	0xbf3d641c	-0.7398088
160	0xbe58d165	-0.21173628
161	0xbe262013	-0.16223173
162	0xbf307ce3	-0.6894056
163	0xbde739ea	-0.11290343
164	0xbf63fe38	-0.8905978
165	0xbbd2c0b6	-0.0064316643
166	0xbf0716f2	-0.52769387
167	0xbea993a4	-0.33120453
168	0xbfcf416e	-1.6191843
169	0xbf4bb4ec	-0.7957294
170	0xbca7c42c	-0.020479284
171	0xbfd9d104	-1.7016912
172	0xbe32cf38	-0.1746186
173	0xbce66986	-0.02812649
174	0xbf17bfcb	-0.5927703
175	0xbf019009	-0.50610405
176	0xbf98a39e	-1.1924932
177	0x3e32123b	0.17389767
178	0xbf5c3752	-0.8602191
179	0xbf596b1d	-0.84929067
180	0xbf80112b	-1.0005239
181	0x3e418ae2	0.18900636
182	0xbf82868a	-1.0197308
183	0xbfa91994	-1.3210931
184	0xbfb46cb9	-1.409568
185	0xbf5c0ac5	-0.85953933
186	0xbf7dafce	-0.9909638
187	0xbf61c314	-0.8818829
188	0xbf824711	-1.0177938
189	0xbf98adc8	-1.1928034
190	0xbf42201c	-0.75830245
191	0xbd09b5b2	-0.033620544
192	0xbf744c91	-0.9542933
193	0xbf38d30f	-0.7219705
194	0xbe44a1d2	-0.19202355
195	0xbee53cab	-0.44772848
196	0xbf83f8e2	-1.0310328
197	0xbf19f1e8	-0.60134745
198	0x3eef8b33	0.46785888
199	0xc0573365	-3.3625119

weight f4 [1, 50]
0	0x3e13a0dd	0.14416833
1	0xbdaf82a8	-0.085698426
2	0x3d1ae758	0.037818283
3	0x3c8aa1f8	0.016922936
4	0x3d8344d0	0.06409609
5	0x3db2eb34	0.08736268
6	0x3d3d0e09	0.046155963
7	0x3e321b17	0.17393146
8	0x3e45279f	0.19253395
9	0x3d3ff8fd	0.046868313
10	0xbdbbb928	-0.09166175
11	0xbe8bbebe	-0.27293962
12	0xbea11908	-0.3146441
13	0x3ecdbe6d	0.40184346
14	0xbddc8728	-0.107679665
15	0xbf439beb	-0.76409787
16	0xbe833e66	-0.25633544
17	0xbe51267d	-0.20424838
18	0x3ebe5a15	0.37178102
19	0x3e29b43d	0.16572662
20	0x3f829abc	1.0203471
21	0x3c929525	0.017893383
22	0x3d8405a8	0.06446391
23	0xbdd5a51f	-0.10431885
24	0xbcaf201e	-0.02137762
25	0xbdd8c19d	-0.10583804
26	0xbd96b288	-0.07358271
27	0xbb7dd522	-0.0038731773
28	0x3b998d27	0.004686016
29	0x3dc52d7d	0.09627817
30	0xbe75723a	-0.23969355
31	0xbd26f740	-0.04076314
32	0xbf66290d	-0.8990639
33	0x3f011c43	0.5043375
34	0x3db4d727	0.088300996
35	0xbc4dc940	-0.012560189
36	0x3da24e79	0.07925124
37	0xbe055cfe	-0.13023755
38	0xbd4f7f3a	-0.050658442
39	0x3ceee239	0.029160606
40	0xbe229fc4	-0.15881258
41	0x3f47ebc3	0.7809412
42	0xbcf09216	-0.029366534
43	0x3db6eb79	0.089316316
44	0x3f6715a8	0.9026742
45	0xbce5662e	-0.028002825
46	0x3e2f3ed3	0.1711381
47	0x3eec9a12	0.46211296
48	0x3d61590a	0.055016555
49	0xbef0cb4e	-0.4703011

hidden_cell f4 [1, 20, 50]
0	0x1f2ef11d	3.7045377e-20
1	0xb0e5ab59	-1.6710643e-09
2	0x2de71e8d	2.6275227e-11
3	0x22260036	2.2497307e-18
4	0x1e21ee23	8.5725146e-21
5	0x1d5fa29a	2.9597867e-21
6	0xb58796f4	-1.0102217e-06
7	0x369bd341	4.643953e-06
8	0x2b256264	5.875632e-13
9	0xb28c0fad	-1.6305274e-08
10	0xb092ccad	-1.068107e-09
11	0xbb843e01	-0.0040357118
12	0xbf7ffebf	-0.99998087
13	0xbf800000	-1.0
14	0x2ba0b27c	1.1418223e-12
15	0xac05501c	-1.8944906e-12
16	0x9c742cd4	-8.0790767e-22
17	0xb5c3dc8f	-1.4592823e-06
18	0xa49acd30	-6.7134455e-17
19	0xbebd0082	-0.3691445
20	0xac89418d	-3.901052e-12
21	0x37507b8d	1.24265325e-05
22	0x26d5ca28	1.4834639e-15
23	0x35ccf0ea	1.52693e-06
24	0xb67749d7	-3.6848849e-06
25	0xab85aeb3	-9.498707e-13
26	0x1b3ed23c	1.5784362e-22
27	0x30a9f5fe	1.2366284e-09
28	0xa9453943	-4.3792454e-14
29	0x26874ebb	9.388847e-16
30	0x2b462c30	7.0405053e-13
31	0x2f1795eb	1.3786632e-10
32	0x3eabddd1	0.3356767
33	0xbf7e383f	-0.99304575
34	0x34cb4c7e	3.7867352e-07
35	0xb586c1bf	-1.0040166e-06
36	0x2b724d64	8.608307e-13
37	0x9d30a885	-2.3380529e-21
38	0xa88243bd	-1.4462276e-14
39	0x354c3e5c	7.6086667e-07
40	0x25f85c77	4.30838e-16
41	0x39c725cc	0.000379844
42	0xaa9364a4	-2.618228e-13
43	0xaa8eaf2f	-2.5345825e-13
44	0xbf800000	-1.0
45	0xb67225a8	-3.608273e-06
46	0xa9fcc72f	-1.1225601e-13
47	0x35d9b6be	1.6220945e-06
48	0xbeb0c526	-0.34525412
49	0xb0ca9951	-1.474101e-09
50	0x2fe86099	4.226919e-10
51	0xb8235c5a	-3.8948237e-05
52	0x38191541	3.6497837e-05
53	0x2ebd31ae	8.60355e-11
54	0x24bf82d4	8.305468e-17
55	0x26157c50	5.1863234e-16
56	0x3f7ffe74	0.9999764
57	0x368ac003	4.1350736e-06
58	0x37135964	8.782696e-06
59	0xb513a319	-5.4999106e-07
60	0xb756a4b8	-1.2793746e-05
61	0xbea5cbbc	-0.32382
62	0x342547ba	1.5392916e-07
63	0xb929cf8a	-0.0001619441
64	0x3116d392	2.1948137e-09
65	0xbf7f02a9	-0.99613434
66	0xafe78fc7	-4.2120815e-10
67	0xbe2aeede	-0.16692683
68	0xb451ca01	-1.953813e-07
69	0xbeb02946	-0.3440649
70	0x352ef3c8	6.51748e-07
71	0x2be0aab8	1.5963541e-12
72	0x35473f2a	7.422519e-07
73	0x34f79c0c	4.6120874e-07
74	0xb87d7eea	-6.04381e-05
75	0xb1c7d256	-5.8155747e-09
76	0x3778562d	1.4802016e-05
77	0xb7173013	-9.0114945e-06
78	0xb3db654b	-1.0216407e-07
79	0x395d517f	0.00021106562
80	0x2e77a0ee	5.6304232e-11
81	0x32054a14	7.758462e-09
82	0x3a72f0df	0.000926746
83	0xba146187	-0.00056602847
84	0x3dd94faf	0.106109016
85	0xb71cc38e	-9.343856e-06
86	0x3d602a2e	0.054727726
87	0xb25a025d	-1.2689807e-08
88	0x2fff7ccd	4.6472906e-10
89	0x3ebe1219	0.37123182
90	0x30e4fa23	1.6660276e-09
91	0x3f73f74b	0.95299214
92	0xb243b594	-1.139178e-08
93	0x37a14db1	1.9228873e-05
94	0xb79f0243	-1.895533e-05
95	0xab5f5dc5	-7.9355646e-13
96	0xb43d8445	-1.7650116e-07
97	0x3edc2f6b	0.43004927
98	0x3f3597aa	0.70934546
99	0xb717910c	-9.034073e-06
100	0x2200cf33	1.7456925e-18
101	0xb381c7d2	-6.043378e-08
102	0x328a3acd	1.6092054e-08
103	0x26f9bccd	1.732902e-15
104	0x1e02fee5	6.934854e-21
105	0x19914445	1.5020222e-23
106	0x3f1b4429	0.6065088
107	0x353fa233	7.1389076e-07
108	0x2ff4f799	4.455927e-10
109	0xb016ed54	-5.4906946e-10
110	0xb3989740	-7.105564e-08
111	0xbe7d0c04	-0.24711615
112	0xbda02ba2	-0.07820822
113	0xb5bd1871	-1.4088711e-06
114	0x2927507b	3.7151255e-14
115	0xbf7fffe6	-0.99999845
116	0xa862685c	-1.25681495e-14
117	0xb57fa191	-9.523001e-07
118	0xa891a78a	-1.6170892e-14
119	0x3f4ba828	0.7955346
120	0x351551bf	5.562578e-07
121	0x289a8070	1.7153135e-14
122	0x28892e3a	1.5230103e-14
123	0x32ab2d67	1.9927667e-08
124	0xb0231e5c	-5.93422e-10
125	0xa6000e05	-4.442792e-16
126	0x2e57b236	4.9043623e-11
127	0xb8951aec	-7.109888e-05
128	0xaa9185fe	-2.585015e-13
129	0x31061f26	1.9517272e-09
130	0x2793f58a	4.106691e-15
131	0x1edbde8b	2.3279569e-20
132	0x351b24e6	5.7795694e-07
133	0xb4919b15	-2.7121192e-07
134	0xbbcc43c0	-0.0062336624
135	0xb57533a7	-9.1344776e-07
136	0x36eaa5fa	6.9930657e-06
137	0xa366b0eb	-1.2505789e-17
138	0x29806761	5.702275e-14
139	0x39b06b96	0.00033649494
140	0x260ec5e9	4.9534365e-16
141	0x3f4c62b5	0.79838115
142	0xac2c0fdd	-2.4451476e-12
143	0x2ee20785	1.0278626e-10
144	0xb4136937	-1.3728719e-07
145	0x9a9fe0b2	-6.6123874e-23
146	0xaf15db6f	-1.362943e-10
147	0x3f7dfa47	0.9921002
148	0x3f497495	0.78693515
149	0xbf22e77c	-0.6363447
150	0x1fb02165	7.4594146e-20
151	0xb0f9de90	-1.818039e-09
152	0x2e5eba0d	5.0642202e-11
153	0x22290802	2.290801e-18
154	0x15d6dea2	8.6785164e-26
155	0x1c871509	8.938988e-22
156	0x36314b29	2.6418804e-06
157	0x37873e16	1.6122165e-05
158	0x2898cc35	1.696395e-14
159	0xb0b50431	-1.3170675e-09
160	0xb3928f18	-6.8246834e-08
161	0xbe24fd43	-0.16112237
162	0xbeccbe89	-0.39989117
163	0xbf7ffaf8	-0.9999232
164	0x2c87f058	3.8636143e-12
165	0xac5da992	-3.150012e-12
166	0xa517256b	-1.310984e-16
167	0xb53e7e28	-7.09641e-07
168	0xa49acb10	-6.7130855e-17
169	0xbec7558d	-0.38932458
170	0x2d9e1824	1.7973241e-11
171	0x38015e59	3.0843865e-05
172	0x268c2170	9.723515e-16
173	0x34c49ca4	3.6621816e-07
174	0xb571c776	-9.006975e-07
175	0xaaed749a	-4.2180566e-13
176	0x1bfd4a1a	4.1903226e-22
177	0x33cb664b	9.471531e-08
178	0xa9053818	-2.9580586e-14
179	0x27f465b4	6.783387e-15
180	0x2d97c9a8	1.7256266e-11
181	0x2957502f	4.7809138e-14
182	0x3ccb15c5	0.024790654
183	0xbf7e7736	-0.9940065
184	0x3784a6bf	1.5813273e-05
185	0xb7ebc7b8	-2.8107184e-05
186	0x2fffd99c	4.653885e-10
187	0x9f2c0c69	-3.6432682e-20
188	0x269250b9	1.0152665e-15
189	0x3381f39f	6.051345e-08
190	0x2a9401ae	2.6291247e-13
191	0x3c3f6287	0.011681206
192	0xad0c1022	-7.961661e-12
193	0x2be44bc0	1.6221399e-12
194	0xbf7ff94f	-0.9998979
195	0xb378342b	-5.7789446e-08
196	0x26ff61a5	1.7720646e-15
197	0x394933a9	0.00019188099
198	0xbe0b37df	-0.13595532
199	0xaf29e1af	-1.545064e-10
200	0x24020c67	2.8199762e-17
201	0xb6400912	-2.861551e-06
202	0x30279149	6.096071e-10
203	0x2876f4fe	1.3708867e-14
204	0x258cb485	2.4408453e-16
205	0x26aee962	1.2136934e-15
206	0xb6886bfa	-4.065686e-06
207	0xbaad65ab	-0.0013229152
208	0x290ff718	3.1966698e-14
209	0xb49cd698	-2.9213402e-07
210	0xb3b623d9	-8.481556e-08
211	0xb84495ee	-4.6869674e-05
212	0x3f7fff44	0.9999888
213	0xbf800000	-1.0
214	0x3236d24f	1.0641613e-08
215	0xa02f3522	-1.4840657e-19
216	0xa32e508a	-9.449614e-18
217	0xb13ae932	-2.7199119e-09
218	0xac4e018b	-2.9275217e-12
219	0xbe1df35b	-0.15424864
220	0xa54cc4f6	-1.7760912e-16
221	0x3d5fabcc	0.054607198
222	0x2f32f8f2	1.6277449e-10
223	0x39130e16	0.0001402426
224	0xbd2277c5	-0.039665002
225	0xb044f6ed	-7.165529e-10
226	0x20153eb9	1.2641544e-19
227	0x30e60695	1.6736573e-09
228	0xad4f8a90	-1.1797355e-11
229	0x27822f6e	3.613367e-15
230	0x37230493	9.716622e-06
231	0x301ad5e4	5.632883e-10
232	0x3f3d58ec	0.7396381
233	0xbf7fffe0	-0.9999981
234	0x3a12dc77	0.000560231
235	0x3679430f	3.7142925e-06
236	0x2f0b0783	1.2644645e-10
237	0x251f4a84	1.3816299e-16
238	0xaea1ed53	-7.3635896e-11
239	0xb2fbb960	-2.9304545e-08
240	0x3466e40e	2.1503385e-07
241	0x329e2dfd	1.8414534e-08
242	0xb10b1408	-2.0238549e-09
243	0xafec2f4f	-4.2961765e-10
244	0xbf800000	-1.0
245	0xbb224a74	-0.0024763616
246	0x298e6eb2	6.3252694e-14
247	0x20dae11b	3.70796e-19
248	0xbf42caba	-0.76090586
249	0xa33f14d2	-1.035854e-17
250	0x1e87db10	1.4384283e-20
251	0xb1971e95	-4.398155e-09
252	0x2cbc5bc5	5.35347e-12
253	0x21d3ac24	1.4343481e-18
254	0x2304bdc4	7.195919e-18
255	0x1fbe4ef1	8.059873e-20

hidden_cell f4 [1, 20, 50]
0	0x3545a4bc	7.362794e-07
1	0xc0f03366	-7.506274
2	0x3f776fdd	0.96655065
3	0x2f157bf4	1.3595508e-10
4	0x36c61800	5.903654e-06
5	0x31620d94	3.2895047e-09
6	0xb58e378a	-1.0595988e-06
7	0x3f7ffffc	0.99999976
8	0x3bdfea78	0.006833371
9	0xbf9b27c0	-1.2121506
10	0xb092cd58	-1.068126e-09
11	0xbb855871	-0.004069381
12	0xc0b8e96b	-5.7784934
13	0xc153b6c7	-13.232123
14	0x3f7ff9c6	0.999905
15	0xb4c8b154	-3.7381926e-07
16	0xad1d5fc9	-8.945685e-12
17	0xc0938b36	-4.6107435
18	0xb91e7d3f	-0.00015114712
19	0xbece08f1	-0.40241197
20	0xb3c17bd4	-9.009787e-08
21	0x37507cbf	1.2426811e-05
22	0x321d0791	9.140323e-09
23	0x3f90ce52	1.1312964
24	0xbf800000	-1.0
25	0xab9b5b48	-1.1038748e-12
26	0x2d8b00ef	1.5802885e-11
27	0x3f7fc950	0.99916553
28	0xb5a76cbe	-1.2474118e-06
29	0x360996f0	2.0502448e-06
30	0x3b84e73d	0.004055886
31	0x2fecb2a2	4.3055076e-10
32	0x3eb3695b	0.35041317
33	0xc0387cd6	-2.8826194
34	0x3e565480	0.20930672
35	0xb586ce8b	-1.004389e-06
36	0x2b74a02a	8.6908486e-13
37	0xadc7b2d2	-2.2703093e-11
38	0xb872b265	-5.786344e-05
39	0x3ea0d19a	0.31409913
40	0x34a81ea2	3.1314727e-07
41	0x4188b4ae	17.088223
42	0xbf726db3	-0.9469864
43	0xb60e8930	-2.1239503e-06
44	0xc136981e	-11.412138
45	0xb802e711	-3.1209613e-05
46	0xbdc400a6	-0.09570436
47	0x383a7147	4.4451353e-05
48	0xbeb857e3	-0.36004552
49	0xbbf93b10	-0.0076059178
50	0x3afccec0	0.001928769
51	0xbe6b36d2	-0.22970131
52	0x3f80b4a0	1.0055122
53	0x35c68fe3	1.4794026e-06
54	0x36cf7dd4	6.183729e-06
55	0x349b2cab	2.89035e-07
56	0x41847ae6	16.560009
57	0x3f7e2a83	0.9928362
58	0x3eaaa6a9	0.33330277
59	0xbf1de52e	-0.61677825
60	0xb7594814	-1.295099e-05
61	0xbf0c26c9	-0.5474668
62	0x3425600d	1.5401766e-07
63	0xb929d1da	-0.00016195272
64	0x3d28e70a	0.04123596
65	0xc0c4ccd3	-6.150003
66	0xb7f2682e	-2.889716e-05
67	0xc293a3d8	-73.82001
68	0xbf1cce87	-0.61252636
69	0xbec7fc04	-0.3905946
70	0x36154d41	2.2247698e-06
71	0x32a3db71	1.9075488e-08
72	0x398f01e9	0.0002727651
73	0x3d89e749	0.06733567
74	0xbf7fe611	-0.9996043
75	0xb3e4f371	-1.0661359e-07
76	0x3944b288	0.00018758525
77	0xc25fe707	-55.975613
78	0xba9fe931	-0.0012200234
79	0x3b82f00d	0.0039959014
80	0x3aad7880	0.0013234764
81	0x3781eb87	1.5487674e-05
82	0x3e1bb889	0.15207113
83	0xbde77a3c	-0.11302611
84	0x3f1ec396	0.6201719
85	0xb71d39c0	-9.371375e-06
86	0x3d60678c	0.05478625
87	0xbaab8575	-0.0013086038
88	0x393ec956	0.00018194815
89	0x3fc5fd94	1.5468011
90	0x39640646	0.00021746111
91	0x400689cd	2.1021607
92	0xbdc62e80	-0.09676838
93	0x3cf6337a	0.030053843
94	0xb79f025b	-1.8955374e-05
95	0xb3ba643d	-8.679533e-08
96	0xbe17dbc5	-0.14829929
97	0x3eeb8336	0.45998544
98	0x3f62c821	0.8858662
99	0xbf17eb90	-0.59343815
100	0x36001f30	1.909164e-06
101	0xbf2872c3	-0.6580011
102	0x3f800302	1.0000918
103	0x309fb858	1.1621166e-09
104	0x36798ea4	3.718692e-06
105	0x3073b854	8.866483e-10
106	0x3f3411a9	0.7033945
107	0x3f7ffd89	0.9999624
108	0x3e33dfba	0.17565814
109	0xbedfa1b8	-0.4367807
110	0xb3989811	-7.105712e-08
111	0xbf20403e	-0.62598026
112	0xbda07f8b	-0.07836827
113	0xb5bd1d95	-1.4090207e-06
114	0x3c5438ba	0.012952978
115	0xc1ad84b3	-21.689795
116	0xb4442124	-1.8265979e-07
117	0xc22a2fce	-42.546684
118	0xbcdc30c8	-0.02687873
119	0x3f8e1348	1.1099634
120	0x351cfafc	5.847976e-07
121	0x2d69d5e0	1.3292006e-11
122	0x336bc841	5.489733e-08
123	0x3f71d89e	0.94471157
124	0xbf7fe13e	-0.9995307
125	0xaa2a8aa4	-1.5147134e-13
126	0x339b927c	7.244395e-08
127	0xc2103b94	-36.05818
128	0xb65ffc91	-3.3376602e-06
129	0x381fbbc9	3.8083443e-05
130	0x3af4ef83	0.0018687103
131	0x2b5883c7	7.6921493e-13
132	0x3836614b	4.3482793e-05
133	0xb8a32f91	-7.7813056e-05
134	0xbf79a056	-0.9751028
135	0xb5753819	-9.1351245e-07
136	0x36eaa626	6.9930857e-06
137	0xb3b80d74	-8.570615e-08
138	0x3963e125	0.0002173228
139	0x3f80138c	1.0005965
140	0x34a7b2dc	3.123631e-07
141	0x41aa5faf	21.29672
142	0xbf22b4af	-0.6355695
143	0x39233cc8	0.00015567534
144	0xb4136939	-1.3728722e-07
145	0xac171775	-2.1471412e-12
146	0xbedaf777	-0.42766926
147	0x4030f6a5	2.765054
148	0x3f881b35	1.0633303
149	0xbf7ffffa	-0.99999964
150	0x358bab05	1.040608e-06
151	0xc1dc150f	-27.510283
152	0x3f7ff4fb	0.99983186
153	0x2d84bb4a	1.5089836e-11
154	0x32fade4f	2.9204925e-08
155	0x318afeb2	4.045284e-09
156	0x36d91bfa	6.470361e-06
157	0x3f7fffff	0.99999994
158	0x3c202e37	0.0097766435
159	0xbf800650	-1.0001926
160	0xb3928f7f	-6.8247566e-08
161	0xbe268113	-0.16260175
162	0xbed8d78c	-0.4235195
163	0xc0a2aee5	-5.0838494
164	0x3f7e6971	0.9937964
165	0xb55ca433	-8.219533e-07
166	0xb220c590	-9.358146e-09
167	0xc02210b2	-2.532269
168	0xb9c4b170	-0.00037516234
169	0xbed2f502	-0.4120255
170	0x33a71121	7.779659e-08
171	0x38015e9f	3.084412e-05
172	0x32002a5d	7.460213e-09
173	0x3f8551da	1.0415604
174	0xbf800000	-1.0
175	0xab2761c1	-5.946598e-13
176	0x2cf3305f	6.9118457e-12
177	0x3f80000a	1.0000012
178	0xb55cc700	-8.224597e-07
179	0x35f62ea1	1.8341999e-06
180	0x3e225b4a	0.15855137
181	0x2f6f6776	2.177368e-10
182	0x3ccf29c8	0.025288478
183	0xc0ac34a1	-5.3814244
184	0x3f2c95f2	0.674163
185	0xb7ebc90d	-2.8107805e-05
186	0x30002d2b	4.6630316e-10
187	0xb02b0233	-6.2212563e-10
188	0x369c95af	4.6665878e-06
189	0x3f735a46	0.9505962
190	0x36fbac2f	7.5004277e-06
191	0x40f12b4c	7.5365353
192	0xbf7f9b1d	-0.9984606
193	0x374ac5f2	1.2086226e-05
194	0xc09e1ee3	-4.9412704
195	0xb7bceb3d	-2.2520888e-05
196	0x3b9875b7	0.0046527046
197	0x3a2f7bf9	0.00066941936
198	0xbe0c15ed	-0.13680239
199	0xbb53e411	-0.0032331983
200	0x366eb0b7	3.5567625e-06
201	0xc23b1825	-46.77358
202	0x3f0139b2	0.5047866
203	0x3170fddb	3.5068897e-09
204	0x37cc74b9	2.4373048e-05
205	0x35b420cf	1.3420594e-06
206	0xb7fa4cde	-2.9838116e-05
207	0xbf7fdf1a	-0.999498
208	0x3a520453	0.00080115086
209	0xbedd4c5f	-0.4322233
210	0xb3b69252	-8.501651e-08
211	0xb84f244d	-4.9386454e-05
212	0x4235e498	45.473236
213	0xc23f1ba0	-47.776978
214	0x3f6b5ef4	0.9194176
215	0xb22c9c00	-1.0047188e-08
216	0xb002c8d7	-4.7579135e-10
217	0xbb8a7941	-0.0042258804
218	0xbb23e700	-0.0025009513
219	0xbe1fc3ed	-0.15602084
220	0xb1f21d56	-7.046462e-09
221	0x3d5fe4d3	0.054661583
222	0x35965cde	1.1202899e-06
223	0x3fcdb237	1.6070012
224	0xbf7fffef	-0.999999
225	0xb049953c	-7.333545e-10
226	0x30a22e8a	1.1800279e-09
227	0x3f7fdf5e	0.99950206
228	0xb71c25a3	-9.307088e-06
229	0x35d3a4f3	1.5768732e-06
230	0x3f6de529	0.92927796
231	0x30d1bfc0	1.526125e-09
232	0x3f739e39	0.95163304
233	0xc24a922d	-50.64275
234	0x3f736e9e	0.95090663
235	0x36795920	3.715577e-06
236	0x2f74475d	2.2217024e-10
237	0x318f5ffe	4.172761e-09
238	0xba100746	-0.0005494248
239	0xbc557d78	-0.013030402
240	0x3bd8d530	0.006617211
241	0x3f487264	0.78299546
242	0xbf7d4733	-0.98936766
243	0xb8eb1962	-0.00011210401
244	0xc222a1d4	-40.658035
245	0xbb225c7a	-0.0024774359
246	0x3b57e5e5	0.0032943424
247	0x33a85000	7.8376615e-08
248	0xbf7f94c0	-0.9983635
249	0xb39de2e4	-7.3521534e-08
250	0x34d9c146	4.0560025e-07
251	0xc1269599	-10.411523
252	0x3eb57bab	0.35445914
253	0x2f2426b6	1.4929466e-10
254	0x38999c01	7.3246665e-05
255	0x32115880	8.460233e-09
