saved_model/model_indi_h2v_subnet.pt (torch_old, 93633 bytes, 12 tensors)

weight_ih_l0 f4 [200, 24]
0.09304846 -0.2618211 0.21752785 0.14074694 0.41452017 -1.1160964 -1.1611388 -1.0132428
-0.78647965 -0.82182765 0.45389766 -0.26517913 -0.3225902 0.008163634 0.3036263 -0.90432924
-0.9134221 -0.7242053 -0.56256896 -0.68809205 0.40203956 -2.1783104 0.41025874 -0.5890612
-0.4573736 0.15134998 -0.22501034 -0.37800646 -0.31800336 -0.11066408 -0.4038986 -0.7213508
-0.36748496 -0.09635885 -0.272646 0.055275768 0.008571717 -0.55980426 -0.21484369 -0.14822567
0.0591103 -0.33536583 -0.40653038 0.044748522 0.07498289 -0.30238628 -1.32555 -0.3799681
-0.3698172 -0.411354 -0.8089911 -0.65683764 -0.5352729 -0.3592998 -0.44541943 -0.5073812
-0.38093948 -0.41422153 -0.5068781 -0.60193276 -0.82463 -0.6454393 -0.7611668 -0.40991193
-0.67886794 -0.58867073 -0.3693135 -0.45819584 0.29767945 -0.029690316 -0.3188858 -0.03925437
0.55926347 0.45377705 0.17895178 0.43772978 0.37349322 -0.4287735 -0.19916543 -0.95775026
-0.5453917 -0.71616864 0.66643727 0.2766414 -0.11617293 0.4405322 0.19595201 -0.23766766
-0.5339796 -0.51290804 -0.4756659 -0.4220172 -0.872213 -0.61631274 -0.39707172 1.3530922
-0.22419693 -0.40990865 -0.113687575 -0.18924664 -3.8941e-06 -0.86391604 -1.1325151 -0.5670099
-0.6319794 -0.91366863 0.04084369 -0.11054174 -0.32357225 0.21904469 0.060988843 -1.2042046
-0.8756146 -0.49043605 -0.4085137 -0.537385 -3.0874825 -4.197104 -0.7795675 0.175821
-0.4239153 -0.20053163 -0.12165713 -0.014088576 -0.06875673 -0.5247871 -0.46641293 -0.4338874
-0.657362 -0.569025 -0.16253015 -0.25530174 -0.34305254 -0.17449108 -0.17480099 -0.46556497
-0.67378074 -0.62248015 -0.63472193 -0.49338332 -0.6154283 -0.6445615 -0.4299306 -0.39395937
-0.074524574 -0.30409113 -0.015083102 0.0014624089 -0.1922133 -0.4649026 -0.48125747 -0.48804837
-0.6063965 -0.42259088 -0.0065066866 -0.24215503 -0.19009815 0.15585335 0.044357773 -0.3641232
-0.272972 -0.44791424 -0.25617808 -0.25135073 0.10439364 -0.6116971 0.25941405 -0.3351144
0.23556863 0.20218061 0.21190163 0.1313648 -0.022661015 -0.21409358 -0.20451657 -0.12656319
0.07035733 0.073379286 0.12141195 0.3935118 0.37151495 0.23675828 -0.03002686 0.04251664
-0.09084631 -0.012508206 0.069788635 0.0333313 0.4058069 0.2772392 0.87093127 -0.22295205
-0.49428558 -1.187836 -0.6084945 -0.7550964 -0.87791 -0.1826885 0.6998807 -0.4591429
0.039142888 0.222915 0.17340074 -0.23744543 -0.64142245 0.019405652 0.3870241 1.1046363
0.5058876 0.63557076 0.91348755 0.3960415 0.3697912 -0.6269996 0.043949217 0.12898909
-0.35706377 -0.41400516 -0.18111254 -0.24400374 -0.3720866 -0.39751723 -0.53918725 -0.7059161
-0.6987587 -0.4873624 -0.123663284 -0.41415665 -0.49734235 -0.39158624 -0.2265743 -0.49476388
-0.49496636 -0.60808736 -0.41679627 -0.5659459 -0.31378788 -0.45606923 -0.3552395 -0.59587574
-1.2088786 -1.2555815 -0.9875037 -0.86865866 -0.68863785 -0.46539035 -0.33270633 -0.030926093
-0.13515852 -0.51844186 -0.99337906 -1.0420046 -1.1379445 -1.0956554 -0.7913459 -0.24418938
00000000: 3190 be3d 6a0d 86be 9fbf 5e3e f71f 103e
00000010: fd3b d43e 3fdc 8ebf 32a0 94bf f1b1 81bf
00000020: bb56 49bf 4c63 52bf 4665 e83e 8fc5 87be
00000030: 8b2a a5be c3c0 053c e874 9b3e 1f82 67bf
00000040: 08d6 69bf 8565 39bf 8504 10bf cd26 30bf
00000050: 21d8 cd3e 7069 0bc0 6f0d d23e b7cc 16bf
00000060: df2c eabe 7dfb 1a3e 1c69 66be 108a c1be
00000070: 56d1 a2be d9a3 e2bd cccb cebe 72aa 38bf
00000080: fd26 bcbe ca57 c5bd 4298 8bbe d868 623d
00000090: 6370 0c3c 554f 0fbf fcff 5bbe 78c8 17be
000000a0: a41d 723d 12b5 abbe c024 d0be 3a4a 373d
000000b0: a190 993d 60d2 9abe 9fab a9bf 2e8b c2be
000000c0: ae58 bdbe fe9c d2be 0a1a 4fbf 8326 28bf
000000d0: a507 09bf 25f6 b7be 040e e4be bce3 01bf
000000e0: 800a c3be d814 d4be c3c2 01bf 4418 1abf
000000f0: f41a 53bf 833b 25bf d4db 42bf fadf d1be
00000100: 4aca 2dbf 20b3 16bf a916 bdbe a598 eabe
00000110: 7169 983e 1b39 f3bc 0045 a3be 31c9 20bd
00000120: e42b 0f3f 7755 e83e 233f 373e 1e1e e03e
00000130: 813a bf3e 3388 dbbe 06f2 4bbe 1f2f 75bf
00000140: ca9e 0bbf d456 37bf a29b 2a3f f1a3 8d3e
00000150: 13ec edbd 708d e13e a5a7 483e 275f 73be
00000160: e3b2 08bf f14d 03bf 7b8a f3be a312 d8be
00000170: 5a49 5fbf acc6 1dbf fc4c cbbe 2032 ad3f
00000180: e193 65be 8cdf d1be 08d5 e8bd dfc9 41be
00000190: 10aa 82b6 9a29 5dbf 41f6 90bf 9027 11bf
000001a0: 67c9 21bf 30e6 69bf b74b 273d b563 e2bd
000001b0: 43ab a5be 404d 603e 70cf 793d 6023 9abf
000001c0: 4728 60bf 6f1a fbbe b528 d1be 1092 09bf
000001d0: 5099 45c0 ad4e 86c0 bc91 47bf 6c0a 343e
000001e0: 6d0b d9be 2a58 4dbe 6027 f9bd c5d3 66bc
000001f0: 54d0 8cbd 7358 06bf adcd eebe 7d26 debe
00000200: e048 28bf 9fab 11bf 4e6e 26be e9b6 82be
00000210: 95a4 afbe caad 32be 08ff 32be 885e eebe
00000220: e57c 2cbf dc5a 1fbf 237d 22bf bd9c fcbe
00000230: b68c 1dbf fc01 25bf dd1f dcbe 0bb5 c9be
00000240: 57a0 98bd d5b1 9bbe 1d1f 77bc 4dae bf3a
00000250: 90d3 44be b707 eebe 6167 f6be 7ae1 f9be
00000260: cd3c 1bbf d55d d8be 0b36 d5bb 7df7 77be
00000270: 17a9 42be 0598 1f3e 7fb0 353d 5b6e babe
00000280: fcc2 8bbe 0455 e5be c629 83be 0bb1 80be
00000290: 55cc d53d 2e98 1cbf ebd1 843e 1d94 abbe
000002a0: e738 713e 6f08 4f3e befc 583e 7e84 063e
000002b0: 98a3 b9bc 593b 5bbe cb6c 51be c899 01be
000002c0: 8117 903d e147 963d d4a6 f83d 617a c93e
000002d0: 3537 be3e c370 723e e4fa f5bc ee25 2e3d
000002e0: a10d babd 38ef 4cbc 58ed 8e3d 6786 083d
000002f0: ecc5 cf3e 4cf2 8d3e 5af5 5e3f 8b4d 64be
00000300: 0013 fdbe 030b 98bf 4cc6 1bbf ff4d 41bf
00000310: b6be 60bf b212 3bbe 622b 333f c714 ebbe
00000320: 4b54 203d d443 643e f78f 313e e524 73be
00000330: 4334 24bf 9af8 9e3c 0628 c63e b964 8d3f
00000340: da81 013f c4b4 223f 52da 693f f4c5 ca3e
00000350: 4655 bd3e 0c83 20bf 1804 343d b715 043e
00000360: 10d1 b6be 7cf8 d3be 9175 39be 1edc 79be
00000370: 2382 bebe 6187 cbbe 2d08 0abf ebb6 34bf
00000380: dae1 32bf 9187 f9be 2d43 fdbd 570c d4be
00000390: a8a3 febe fe7d c8be 1803 68be b151 fdbe
000003a0: 3b6c fdbe 9dab 1bbf 5266 d5be d5e1 10bf
000003b0: cea8 a0be e881 e9be f4e1 b5be 508b 18bf
000003c0: 89bc 9abf e5b6 a0bf 0bcd 7cbf 6a60 5ebf
000003d0: 924a 30bf a547 eebe 7c58 aabe b858 fdbc
000003e0: ff66 0abe 9bb8 04bf 174e 7ebf 6860 85bf
000003f0: 2aa8 91bf 703e 8cbf a595 4abf c80c 7abe

weight_hh_l0 f4 [200, 50]
-0.77098614 -0.5662746 -0.0685009 0.1593817 -2.1015024 -0.052755013 -0.8828018 0.4779862
-1.9618107 -0.4730801 -0.23217228 0.10259061 0.43364775 -0.12519471 0.6343743 -0.9710478
0.033635113 -0.036031518 0.29639077 0.2713624 0.41018417 -0.029637897 -0.8621163 -3.164572
0.22239238 -0.3263453 -0.019807214 -0.5566258 -0.2709149 -0.02319655 -0.23137707 0.4716548
0.6895221 -0.18031083 -0.8085074 -0.71152973 -0.1618509 -0.14495759 -0.38724542 -0.29012004
-0.32566896 0.24498847 0.7099016 0.49470496 0.03769333 0.949657 0.9648928 -0.06339129
-0.057496645 -0.7802654 -0.10634434 -0.7362124 -0.23399293 0.53972614 0.3036557 -0.5946869
-0.13789131 -0.19536954 1.5094221 0.49595115 -0.6044822 -0.96745545 0.088983886 0.08476247
-0.7720611 0.048370432 -0.23471165 0.21672557 0.5627013 0.17723486 -1.1877149 1.0179908
1.2240026 0.8289109 0.5835486 -0.31599632 -0.20811811 0.4176902 0.17181197 0.39154333
0.42514202 -1.3475673 -0.051447175 0.3042308 0.13568653 0.70537823 -0.09637634 0.040759612
-0.59142953 0.16786453 -0.30056754 -0.8691626 0.12428183 0.15835948 1.0968394 -2.4788928
-0.18797342 -0.84659857 2.0386407 -0.50750506 -0.5000914 0.66193795 1.2000096 -0.30700102
0.24352795 -0.2010121 -0.37907073 -0.34760413 -0.20467003 0.009117566 0.60150033 -0.087359145
-0.05360545 0.13399929 -0.69467074 1.195558 0.018441249 -0.20145881 0.263498 -0.94154656
-0.8150484 -0.45421794 0.06483388 -0.066815 -0.09389045 -0.102561146 -0.3269477 0.24746588
-0.1918811 0.011368314 0.04605643 0.7197484 -0.3221628 0.47615024 0.012053997 0.30746
0.10081403 -0.25091386 0.85128164 -0.88463974 0.122322656 -0.14986533 0.24489442 0.1254716
0.13811488 -0.9336673 -0.73848325 1.0315223 2.0369003 -0.2280045 -0.070397556 1.8466285
0.5963106 0.32614106 1.660576 0.0074881497 -0.49838942 -0.450762 -0.7708436 0.9968153
-0.8068556 -1.1845003 0.44268063 0.7271658 -1.6134087 1.3994266 -0.42110997 0.25292727
1.203663 0.18424667 0.17784193 1.0735587 0.40303504 -0.5514866 -0.36717257 -0.25651744
0.5126645 0.84468067 -0.40586874 -1.9293473 0.4453443 -0.48380038 -1.0064003 -0.19519676
-0.16258837 0.18412705 0.019101342 0.35679674 1.0755141 -1.6603794 0.4094211 -0.000948637
-0.47300634 0.32561725 2.6203659 -2.2532842 -0.21134606 2.6022408 2.9890995 -0.1883652
0.83454025 1.0691452 0.49180636 2.00775 0.0719167 -1.236986 -0.799255 -0.07977335
0.39941388 -0.25650322 -0.0034726777 -1.7219584 0.055744965 0.65198576 1.9221439 1.0034872
-0.50561535 -0.46038857 2.9945536 0.2620828 -0.7046586 1.0399868 0.47100878 -3.1760194
0.67209417 -0.2600912 1.3580071 -1.585302 0.112675846 0.37008855 0.7901331 -0.3908054
1.7160828 0.32473725 -0.17247404 0.9254366 -0.36689082 -0.6946448 -2.2012882 -2.9249578
0.23759635 -2.0470848 1.6630548 0.115461655 2.8561695 -3.3414435 -1.4148473 -1.5408559
5.460199 -2.1252835 0.33367398 0.9927972 -0.0069187526 0.40965006 0.49944007 -0.12765214
00000000: 595f 45bf 5ff7 10bf 334a 8cbd f534 233e
00000010: 047f 06c0 a415 58bd 4cff 61bf 9bba f43e
00000020: 9d1c fbbf 8e37 f2be 92be 6dbe 071b d23d
00000030: 1407 de3e 0b33 00be 5b66 223f 9796 78bf
00000040: f9c4 093d c995 13bd 88c0 973e 03f0 8a3e
00000050: a903 d23e 2dcb f2bc a7b3 5cbf 5988 4ac0
00000060: d4ba 633e bb16 a7be bd42 a2bc 077f 0ebf
00000070: 5cb5 8abe b106 bebc 1cee 6cbe bd7c f13e
00000080: 8584 303f 67a3 38be 57fa 4ebf d026 36bf
00000090: 3ebc 25be c36f 14be 0845 c6be 9d8a 94be
000000a0: 15be a6be 42de 7a3e 1cbc 353f f849 fd3e
000000b0: 5264 1a3d b91c 733f 3703 773f 4bd3 81bd
000000c0: 9a81 6bbd 79bf 47bf 10cb d9bd 6a78 3cbf
000000d0: d89b 6fbe 7e2b 0a3f c378 9b3e 673d 18bf
000000e0: 6133 0dbe f40e 48be be34 c13f 4fed fd3e
000000f0: 58bf 1abf 29ab 77bf 2f3d b63d f297 ad3d
00000100: cca5 45bf 1320 463d 4058 70be 4fed 5d3e
00000110: 310d 103f 0e7d 353e 0b07 98bf 864d 823f
00000120: 1eac 9c3f 8133 543f 7163 153f 45ca a1be
00000130: ea1c 55be 7ddb d53e 7aef 2f3e 5e78 c83e
00000140: 37ac d93e 167d acbf 46ba 52bd 24c4 9b3e
00000150: 69f1 0a3e ab93 343f f560 c5bd 8df3 263d
00000160: ed67 17bf aee4 2b3e fde3 99be 7181 5ebf
00000170: 7987 fe3d fd28 223e 3c65 8c3f 2ea6 1ec0
00000180: 1b7c 40be afba 58bf 1779 0240 daeb 01bf
00000190: fd05 00bf c474 293f ea99 993f 3d2f 9dbe
000001a0: 645f 793e 1ed6 4dbe 8f15 c2be 2bf9 b1be
000001b0: 0595 51be d861 153c edfb 193f 5ae9 b2bd
000001c0: 6391 5bbd 1c37 093e f1d5 31bf 0b08 993f
000001d0: 1a12 973c 384b 4ebe 36e9 863e 3209 71bf
000001e0: 03a7 50bf 418f e8be a0c7 843d 4dd6 88bd
000001f0: a349 c0bd 940b d2bd b065 a7be b267 7d3e
00000200: 7b7c 44be 2a42 3a3c aba5 3c3d 6e41 383f
00000210: 86f2 a4be f7c9 f33e 217e 453c 666b 9d3e
00000220: 9677 ce3d c877 80be 98ed 593f c077 62bf
00000230: 4d84 fa3d 4c76 19be 9ac5 7a3e a17b 003e
00000240: fd6d 0d3e d204 6fbf 3d0d 3dbf ec08 843f
00000250: 935c 0240 037a 69be 982c 90bd 535e ec3f
00000260: d0a7 183f f6fb a63e c18d d43f 275f f53b
00000270: e62c ffbe 47ca e6be 0256 45bf 4a2f 7f3f
00000280: 178e 4ebf b59d 97bf 09a7 e23e 8a27 3a3f
00000290: 2d84 cebf 6920 b33f ba9b d7be af7f 813e
000002a0: a111 9a3f 29ab 3c3e 321c 363e 5f6a 893f
000002b0: 9c5a ce3e 3a2e 0dbf 0bfe bbbe 4156 83be
000002c0: fb3d 033f fe3c 583f 07ce cfbe daf4 f6bf
000002d0: 2b04 e43e afb4 f7be bad1 80bf a9e1 47be
000002e0: 917d 26be cd8b 3c3e 6b7a 9c3c 10ae b63e
000002f0: 72aa 893f 5087 d4bf a49f d13e f4ad 78ba
00000300: e32d f2be 4eb7 a63e 13b4 2740 cf35 10c0
00000310: 1a6b 58be 1d8b 2640 684d 3f40 cfe2 40be
00000320: 6ea4 553f c0d9 883f 0bce fb3e fa7e 0040
00000330: 1049 933d 8f55 9ebf fa9b 4cbf 3660 a3bd
00000340: fa7f cc3e 6454 83be dd95 63bb 2269 dcbf
00000350: d554 643d 8ae8 263f d008 f63f 4572 803f
00000360: 0270 01bf 0db8 ebbe c4a6 3f40 b72f 863e
00000370: 8264 34bf 4a1e 853f 1028 f13e e743 4bc0
00000380: 5d0e 2c3f ac2a 85be 2dd3 ad3f 2deb cabf
00000390: 98c2 e63d 3f7c bd3e 2a46 4a3f a517 c8be
000003a0: 9aa8 db3f f643 a63e 099d 30be 6ae9 6c3f
000003b0: 1dd9 bbbe 3ed4 31bf e8e1 0cc0 8232 3bc0
000003c0: 754c 733e 7003 03c0 fbde d43f 2977 ec3d
000003d0: 7bcb 3640 36da 55c0 b719 b5bf c43a c5bf
000003e0: f3b9 ae40 a504 08c0 51d7 aa3e f527 7e3f
000003f0: b4b6 e2bb a7bd d13e 9cb6 ff3e 3eb7 02be

bias_ih_l0 f4 [200]
-0.5459899 -0.5455957 -0.69201773 -1.0016924 -1.2122725 -0.90909123 -1.6777948 -1.2355115
-2.895614 -0.9985842 -1.2324085 -0.8008344 -1.554948 -1.2227447 -1.3933254 1.6311754
-1.2383153 -0.8602891 -1.3282052 -0.22995445 -3.4018064 -2.2290726 -0.95059824 -3.0576112
-1.5488819 -0.9546403 -1.5962217 -1.1116903 -1.651947 -0.8574095 -1.0404315 -0.88543385
-1.5425558 -1.6941689 -0.98438376 -2.9718666 -1.1409997 -0.88561404 -1.5958383 -0.9417134
-1.7021987 -1.9133202 -1.5002716 -0.95615447 -0.8785378 -0.819901 -0.8326341 -0.47607023
-0.6398222 -1.8958937 -0.7208362 -1.1814998 -0.9889432 -1.0260563 -0.11738581 -1.2434946
-0.90069634 -0.5586513 0.77273774 -1.0193661 -0.41467017 -1.1315694 -1.0263456 -0.98357797
-0.9241857 -0.88333774 -0.7310274 -1.1164718 -0.33880582 0.7734712 -2.3968413 -0.74164236
-1.3223069 -0.06146964 -0.7132224 -0.8141171 -1.3799174 -0.6129389 -1.1824409 -0.44530138
-1.1870866 -0.5943953 -0.14968862 -1.1992319 -0.09515656 0.13785954 -1.1130927 -0.5593685
-0.08549344 -0.7707763 -1.2749459 -0.83053553 -0.62839293 -0.7133284 -0.75216 -0.20188442
-1.0992229 0.20697486 -1.488251 0.34689465 0.5864487 -0.6098714 0.108247854 0.09950327
-0.2904111 -0.33604902 -0.20790109 -0.11160033 0.71851337 -0.24402793 0.017515622 0.070051186
-0.15226948 -0.5759463 -0.1559053 -0.09691921 0.18238348 0.026108013 -0.2330642 -0.20245565
-0.18522504 -0.26689187 0.8423473 -0.028919091 0.070766136 0.09242012 -0.1523169 0.10686086
-0.589695 0.31500873 -0.055945594 0.47301075 0.2627228 0.04245916 0.577005 0.10831329
-0.12240051 -0.33306053 0.68226606 0.39942655 -0.32811338 0.13509856 -0.3614807 -0.29165512
-0.55131835 0.6926611 0.462122 -0.4649769 -0.83593714 0.4550503 -1.0638367 -1.6737186
-0.53980213 -0.73961115 0.03678913 -1.1449213 -0.82414466 -1.6030306 1.3876286 -1.0171422
0.1281497 -1.6218259 -1.4190696 -1.4999563 -1.9561673 -0.70073754 -1.2671635 -1.7293984
-0.86750317 1.3503358 -1.3872501 -0.20399311 -1.0773988 0.3263079 -0.8018391 -1.6996833
-0.7613958 -1.9362118 -0.9140851 0.4996062 -0.87364405 -2.0001867 0.031170832 0.077172264
-1.23329 0.15565136 -0.80417657 -0.68412346 -1.1439742 -0.60422325 -0.89316344 -0.2293855
0.90419865 -1.5499307 -1.1760792 -0.72756064 -0.9661342 -1.0897032 -0.87379926 -0.8036086
00000000: fec5 0bbf 29ac 0bbf 1328 31bf 7537 80bf
00000010: bf2b 9bbf 34ba 68bf fbc1 d6bf 3e25 9ebf
00000020: bd51 39c0 37a3 7fbf 90bf 9dbf 7c03 4dbf
00000030: 8908 c7bf e682 9cbf 7d58 b2bf 5bca d03f
00000040: 1e81 9ebf e83b 5cbf a102 aabf 2e79 6bbe
00000050: 32b7 59c0 20a9 0ec0 685a 73bf e7af 43c0
00000060: c341 c6bf 4f63 74bf fe50 ccbf de4b 8ebf
00000070: 0073 d3bf 307f 5bbf dc2c 85bf cbab 62bf
00000080: 7872 c5bf 87da d8bf 9300 7cbf 1033 3ec0
00000090: 470c 92bf 9ab7 62bf 6e44 ccbf 2114 71bf
000000a0: a6e1 d9bf ade7 f4bf e608 c0bf 8ac6 74bf
000000b0: dae7 60bf 08e5 51bf 8227 55bf 7abf f3be
000000c0: 63cb 23bf a5ac f2bf b988 38bf 633b 97bf
000000d0: 622b 7dbf d055 83bf f967 f0bd d52a 9fbf
000000e0: 0994 66bf c603 0fbf 24d2 453f 977a 82bf
000000f0: a64f d4be 44d7 90bf 4b5f 83bf c4cb 7bbf
00000100: 6f97 6cbf 6c22 62bf 9d24 3bbf 8ce8 8ebf
00000110: f577 adbe 3502 463f d965 19c0 46dc 3dbf
00000120: 5a41 a9bf 97c7 7bbd be95 36bf fa69 50bf
00000130: 22a1 b0bf 90e9 1cbf 395a 97bf 8bfe e3be
00000140: 74f2 97bf 4a2a 18bf f947 19be 6e80 99bf
00000150: 71e1 c2bd 0d2b 0d3e d279 8ebf c632 0fbf
00000160: 2f17 afbd 9851 45bf 6d31 a3bf fa9d 54bf
00000170: 5cde 20bf b19c 36bf 8f8d 40bf caba 4ebe
00000180: 56b3 8cbf 38f1 533e 027f bebf 2d9c b13e
00000190: 8121 163f 8820 1cbf 0db1 dd3d 5fc8 cb3d
000001a0: c4b0 94be 9e0e acbe 06e4 54be b78e e4bd
000001b0: 7ef0 373f 75e2 79be ec7c 8f3c ff76 8f3d
000001c0: 88ec 1bbe 3771 13bf a4a5 1fbe 947d c6bd
000001d0: bcc2 3a3e 79e0 d53c 62a8 6ebe 8950 4fbe
000001e0: a2ab 3dbe 0da6 88be 13a4 573f bbe7 ecbc
000001f0: d6ed 903d c346 bd3d f6f8 1bbe ded9 da3d
00000200: 40f6 16bf d348 a13e 3527 65bd 772e f23e
00000210: 9a83 863e a8e9 2d3d 9ab6 133f 5cd3 dd3d
00000220: 1ead fabd e986 aabe fda8 2e3f a381 cc3e
00000230: 7afe a7be 4757 0a3e 0014 b9be d253 95be
00000240: 3323 0dbf 3d52 313f 419b ec3e 7411 eebe
00000250: faff 55bf 5afc e83e cd2b 88bf 693c d6bf
00000260: 7930 0abf 2857 3dbf 33b0 163d c88c 92bf
00000270: 25fb 52bf 1b30 cdbf d09d b13f b731 82bf
00000280: ad39 033e fe97 cfbf 13a4 b5bf 91fe bfbf
00000290: b163 fabf 8963 33bf 6a32 a2bf ed5c ddbf
000002a0: b014 5ebf ced7 ac3f 6991 b1bf 92e3 50be
000002b0: 34e8 89bf d411 a73e 5445 4dbf 398f d9bf
000002c0: d6ea 42bf cad5 f7bf 7b01 6abf 62cc ff3e
000002d0: 23a7 5fbf 0f03 00c0 f959 ff3c 7e0c 9e3d
000002e0: 72dc 9dbf 1263 1f3e 84de 4dbf b722 2fbf
000002f0: bf6d 92bf 60ae 1abf 5ca6 64bf 08e4 6abe
00000300: 9079 673f 2164 c6bf c389 96bf 6a41 3abf
00000310: 9254 77bf 657b 8bbf 4fb1 5fbf 4bb9 4dbf

bias_hh_l0 f4 [200]
-0.44480127 -0.7376755 -0.87911457 -1.1202708 -1.1731151 -0.8634541 -1.6493388 -1.1768861
-2.70061 -0.84629375 -1.1229348 -0.6719347 -1.400231 -1.3447235 -1.3081144 1.7464665
-1.1277947 -0.8852891 -1.151276 -0.110696614 -3.4695787 -2.0677698 -1.159683 -3.0043252
-1.5261546 -1.0518047 -1.4899046 -1.2572894 -1.723753 -0.638855 -1.0782274 -1.0264951
-1.5945168 -1.6500589 -0.7398036 -3.0178165 -1.0571992 -1.032441 -1.546627 -0.9787538
-1.6013837 -1.9764489 -1.3343897 -1.0834689 -0.8692875 -0.9020926 -0.7932228 -0.46920604
-0.60176295 -1.9953381 -0.77267796 -1.1231114 -0.96211463 -0.9024443 -0.09063197 -1.3461906
-0.88443816 -0.3865293 0.77508426 -0.90417576 -0.5693653 -1.1669067 -1.1135302 -0.86210823
-0.90475386 -0.7121589 -0.5729609 -1.1050438 -0.29897016 0.80706865 -2.213705 -0.7070004
-1.311238 -0.23697633 -0.49056834 -0.7127204 -1.1882524 -0.5362045 -1.3691024 -0.5982641
-1.456929 -0.68680894 -0.36851427 -1.1717432 -0.08311764 0.12749372 -1.2980527 -0.60712284
-0.026744703 -0.6330459 -1.2571496 -0.7137413 -0.40508607 -0.775467 -0.5823017 -0.21982083
-1.0100611 0.28268027 -1.5159876 0.5780489 0.74959785 -0.8079944 -0.11843365 -0.07273597
-0.14324135 -0.3919206 -0.08969212 -0.035748847 0.69986415 -0.16998917 -0.06938615 0.14420661
0.034765683 -0.7160816 -0.24670318 0.0400815 0.31395373 0.16119103 -0.18070906 -0.06797634
-0.24631582 -0.3248687 0.8766603 0.12627755 -0.055236023 -0.036494426 -0.3695955 -0.115618296
-0.6654665 0.32351485 0.021180259 0.6208469 0.2556015 0.06361594 0.78403634 -0.0051753656
-0.29557556 -0.2610036 0.6040166 0.56556195 -0.14939383 0.19322173 -0.5014634 -0.117166944
-0.4572105 0.7095373 0.45738593 -0.37657368 -0.89065313 0.32266247 -1.0131587 -1.5272275
-0.47126278 -0.71019495 -0.027395591 -1.003294 -1.0137496 -1.5493269 1.3873429 -0.9512733
0.22429018 -1.6841044 -1.3158089 -1.5571684 -1.9670855 -0.60736686 -1.1359208 -1.7316715
-0.91170394 1.3676977 -1.249318 -0.28365877 -0.9089299 0.2476492 -0.7227719 -1.6349877
-0.83769214 -1.9715984 -1.0711746 0.2411327 -0.9483034 -2.105456 -0.056247387 -0.023005119
-1.3171978 0.19060594 -0.69103324 -0.7716971 -1.2774435 -0.8718881 -1.0477321 -0.22424391
1.0683718 -1.544439 -1.4421866 -0.7556572 -0.7794223 -0.9747891 -0.7832747 -0.8224104
00000000: febc e3be 4dd8 3cbf a70d 61bf 0965 8fbf
00000010: a328 96bf 540b 5dbf 891d d3bf 34a4 96bf
00000020: cbd6 2cc0 b5a6 58bf 54bc 8fbf ea03 2cbf
00000030: c53a b3bf e61f acbf 4b70 a7bf 378c df3f
00000040: 945b 90bf 4ea2 62bf 035d 93bf e8b4 e2bd
00000050: 940d 5ec0 5756 04c0 7e70 94bf dd46 40c0
00000060: 0959 c3bf 89a1 86bf 32b5 bebf dcee a0bf
00000070: f0a3 dcbf 008c 23bf 5b03 8abf 3164 83bf
00000080: 2019 ccbf 2135 d3bf c563 3dbf e823 41c0
00000090: 4e52 87bf 0727 84bf e0f7 c5bf 9c8f 7abf
000000a0: 24fa ccbf 47fc fcbf 48cd aabf 1caf 8abf
000000b0: a089 5ebf 8aef 66bf a610 4bbf c63b f0be
000000c0: 230d 1abf 3d67 ffbf 39ce 45bf 1dc2 8fbf
000000d0: 254d 76bf 9706 67bf 419d b9bd f94f acbf
000000e0: 8a6a 62bf 2be7 c5be ec6b 463f 1078 67bf
000000f0: edc1 11bf 335d 95bf 2888 8ebf 20b3 5cbf
00000100: f39d 67bf 0c50 36bf 91ad 12bf 1372 8dbf
00000110: 9e12 99be 0d9c 4e3f 58ad 0dc0 fafd 34bf
00000120: a6d6 a7bf eca9 72be c62b fbbe d874 36bf
00000130: a818 98bf b344 09bf bf3e afbf d627 19bf
00000140: a67c babf b6d2 2fbf e7ad bcbe aefb 95bf
00000150: 9539 aabd b78d 023e 9726 a6bf 676c 1bbf
00000160: b517 dbbc 4c0f 22bf 47ea a0bf c0b7 36bf
00000170: 7167 cfbe 0185 46bf b911 15bf b618 61be
00000180: af49 81bf 78bb 903e e20b c2bf 03fb 133f
00000190: a5e5 3f3f b9d8 4ebf 578d f2bd 99f6 94bd
000001a0: dcad 12be d1a9 c8be 81b0 b7bd 626d 12bd
000001b0: 4c2a 333f a411 2ebe 531a 8ebd e6aa 133e
000001c0: 7666 0e3d 2051 37bf c29f 7cbe 802c 243d
000001d0: 8bbe a03e 430f 253e cc0b 39be 2e37 8bbd
000001e0: 373a 7cbe 3155 a6be cf6c 603f e74e 013e
000001f0: 2b3f 62bd 2e7b 15bd 9f3b bdbe 49c9 ecbd
00000200: 035c 2abf bda3 a53e 3982 ad3c d3ef 1e3f
00000210: 33de 823e 1349 823d 9bb6 483f 1d96 a9bb
00000220: ae55 97be 44a2 85be d5a0 1a3f abc8 103f
00000230: b2fa 18be ebdb 453e e85f 00bf 39f5 efbd
00000240: 7f17 eabe 3da4 353f 7d2e ea3e 44ce c0be
00000250: d801 64bf 0434 a53e 2faf 81bf 317c c3bf
00000260: 5b49 f1be 56cf 35bf b86c e0bc f06b 80bf
00000270: 8cc2 81bf 5850 c6bf 7494 b13f a686 73bf
00000280: 53ac 653e bc90 d7bf 6d6c a8bf 4b51 c7bf
00000290: 75c9 fbbf 657c 1bbf da65 91bf 69a7 ddbf
000002a0: 6e65 69bf b810 af3f a7e9 9fbf b93b 91be
000002b0: a1af 68bf c097 7d3e 9407 39bf 4747 d1bf
000002c0: fe72 56bf 565d fcbf 401c 89bf 7eeb 763e
000002d0: 03c4 72bf cbbf 06c0 a963 66bd 3b75 bcbc
000002e0: f099 a8bf 342e 433e 8ee7 30bf f18d 45bf
000002f0: 4583 a3bf 0f34 5fbf 161c 86bf 32a0 65be
00000300: 68c0 883f 2db0 c5bf 9299 b8bf c072 41bf
00000310: 3888 47bf c78b 79bf b184 48bf 7d89 52bf

weight f4 [1, 51]
-0.17265663 -0.36201397 0.09397278 0.1448829 0.028803948 0.05772382 0.11443323 -0.020344147
0.5915007 0.019070951 -0.051117525 0.25284356 0.06240385 -0.18589345 -0.12320114 -0.16371511
-0.07103544 -0.3228485 -0.21690129 0.14158508 -0.55035424 0.09175111 0.010193464 -1.1987048
0.2090841 -0.0693034 -0.30679587 -0.07700466 -0.17263697 0.8713693 -0.12074628 -0.16119052
0.10609431 0.18560877 -0.16188031 0.14242916 0.07777874 0.016322592 0.021154583 0.087704524
-0.3934269 -0.19398694 0.21706073 0.45011047 -0.11586693 0.09694269 -0.14381231 -0.9494039
0.12181996 -0.13646221 0.026828313
00000000: e6cc 30be e559 b9be cd74 c03d 2f5c 143e
00000010: 42f6 eb3c d06f 6c3d f85b ea3d c5a8 a6bc
00000020: 976c 173f af3a 9c3c 9c60 51bd b674 813e
00000030: 2e9b 7f3d da5a 3ebe e150 fcbd efa4 27be
00000040: 077b 91bd 664c a5be 5f1b 5ebe aefb 103e
00000050: 04e4 0cbf 02e8 bb3d 7d02 273c 296f 99bf
00000060: 241a 563e f1ee 8dbd 5914 9dbe 9fb4 9dbd
00000070: bfc7 30be 0f12 5f3f d349 f7bd 210f 25be
00000080: f947 d93d 3a10 3e3e f4c3 25be f3d8 113e
00000090: 764a 9f3d f5b6 853c 604c ad3c 6e9e b33d
000000a0: 406f c9be 83a4 46be 2b45 5e3e e174 e63e
000000b0: a44b edbd e489 c63d 8943 13be 220c 73bf
000000c0: be7c f93d c0bc 0bbe 0dc7 db3c

weight f4 [50, 20]
-0.24208046 0.16052188 -0.17907779 0.21583565 -0.053869955 -0.038725894 -0.013845642 -0.27837172
0.011557624 -0.15179445 -0.34590024 -0.19943447 -0.13060223 0.12633929 -0.23470989 -0.2787662
-0.28193882 0.07091368 0.074322015 -0.13474138 -0.09634527 -0.46489003 0.12989357 -0.17262314
-0.09195923 -0.032039315 -0.13092476 0.028799713 -0.18453395 0.11224417 0.31367737 -0.115964055
-0.14238724 0.102945656 -0.027428232 0.32820985 -0.43261573 -0.060957346 0.055570904 -0.5512948
-0.057804156 0.43257275 -0.40677837 0.25126022 0.06641906 0.053975858 0.07094247 0.079733066
-0.019834071 0.2573722 0.54961354 0.1371377 -0.4870159 0.013318004 -0.8576976 -0.13974643
0.10963252 0.033353966 -0.2758743 -0.59289014 -0.47702968 -1.069253 -0.31562304 0.39686045
0.3651227 0.23301189 0.27491522 0.08220288 -0.13952659 0.23347968 -0.08390376 -0.5739561
0.3648452 0.21299078 -0.24079789 0.08737024 -0.05368818 -0.5032878 -0.1930994 -0.40521923
-0.23304427 -0.70846945 0.14210983 0.12530544 0.28871027 0.19236977 0.21638991 0.1725503
-0.12331616 0.38877112 -0.04099476 -0.07133459 0.34943408 0.041877527 -0.09329056 -0.18927655
-0.07344512 -0.72623837 0.032708317 -0.08705812 -0.21198834 0.33048278 0.10372043 -0.17627935
0.23517963 -0.14572327 -0.40062544 -0.31848788 -0.17845951 -0.0015356649 -0.19672212 -0.28320807
-0.23812144 0.019003643 0.16829489 -0.26985788 -0.28257406 -0.07887352 0.016650481 -0.068453416
0.08337428 0.48855707 0.63303566 -0.30595842 0.106190704 -0.3807428 0.13579072 -0.13272409
0.00062506506 -0.09575474 0.3612137 0.09661327 -0.00044664112 -0.39329925 -0.058413308 -0.79387313
0.005619212 -0.0855138 0.27435598 -0.2705308 0.6874895 0.923238 0.054172646 -0.23123468
-0.5792611 -0.15534537 -0.38130426 -0.14440128 0.3930117 -0.08213513 0.19698417 -0.42310354
-0.30597913 0.21335019 0.26061875 0.08706395 -0.40927365 0.2796266 0.14569461 0.37501335
-0.71694636 -1.3892729 -0.17785752 0.28018397 -0.0121439835 0.31096682 -0.24763864 -0.61517626
-0.1766898 0.045557898 -0.722158 -0.18126462 0.31386933 0.025988122 -0.087097324 0.13491946
0.19447476 -0.32656625 -0.21450213 0.012651201 0.60783637 -0.017143868 0.2565373 -0.07306616
0.0320641 -0.02780548 -0.3142268 -0.119040065 0.39745355 -0.040371306 0.08123015 -0.596748
0.0731208 0.32668242 -0.12162739 -0.2637806 -0.1389623 -0.14687084 0.27628273 0.15421373
-0.24469815 0.73308843 -0.15088755 0.09779041 -0.270222 0.41183418 0.017213378 0.5852324
0.18820477 0.47983453 0.48303175 0.31426454 -0.33166254 -0.062404715 -0.48770365 -0.39852723
0.57295007 -0.13404553 -0.03526919 -0.13252544 -0.06756937 0.09006313 -0.37912506 0.22460198
-0.04155118 0.60247076 0.049511753 -0.055220008 -0.059136845 -0.6722392 -0.13672608 0.19023477
-0.12990665 0.11858151 -0.6405184 -0.0033560037 0.2134234 0.19629654 0.24976505 0.17407422
-0.29753274 -0.80834943 0.22504695 0.013296445 0.4812909 -0.019723393 1.2765023 -0.24106057
-0.04883781 -0.11729736 -0.29765856 -0.37957224 0.2509113 -0.0795477 0.37742394 0.17454927
00000000: f1e3 77be d95f 243e 2b60 37be 0504 5d3e
00000010: bea6 5cbd 0b9f 1ebd d5d8 62bc bd86 8ebe
00000020: 305c 3d3c 0170 1bbe d619 b1be 8d38 4cbe
00000030: 97bc 05be 165f 013e ca57 70be 72ba 8ebe
00000040: 495a 90be 313b 913d 2436 983d a5f9 09be
00000050: ab50 c5bd 1106 eebe d202 053e 1fc4 30be
00000060: 1f55 bcbd a83b 03bd 2411 06be 60ed eb3c
00000070: 78f6 3cbe 45e0 e53d 529a a03e 907e edbd
00000080: f6cd 11be 2cd5 d23d 2cb1 e0bc 1f0b a83e
00000090: cf7f ddbe 69ae 79bd 519e 633d a821 0dbf
000000a0: 0dc4 6cbd 2d7a dd3e 4145 d0be 2ea5 803e
000000b0: b706 883d ca15 5d3d 494a 913d 174b a33d
000000c0: 107b a2bc 4ac6 833e 79b3 0c3f d36d 0c3e
000000d0: 265a f9be c233 5a3c 1292 5bbf b019 0fbe
000000e0: 0487 e03d 2b9e 083d 653f 8dbe a6c7 17bf
000000f0: 3c3d f4be 48dd 88bf 5899 a1be 4b31 cb3e
00000100: 5df1 ba3e ab9a 6e3e b0c1 8c3e fc59 a83d
00000110: 0fe0 0ebe 4c15 6f3e bcd5 abbd c9ee 12bf
00000120: fdcc ba3e 411a 5a3e b993 76be 2bef b23d
00000130: 23e8 5bbd 78d7 00bf d9bb 45be e578 cfbe
00000140: 28a3 6ebe 415e 35bf 3d85 113e 1250 003e
00000150: d5d1 933e 95fc 443e 5195 5d3e 07b1 303e
00000160: 2f8d fcbd 020d c73e 1fea 27bd df17 92bd
00000170: 06e9 b23e c587 2b3d 1f0f bfbd b6d1 41be
00000180: 656a 96bd c2ea 39bf 28f9 053d 874b b2bd
00000190: 7913 59be 0a35 a93e 606b d43d 9382 34be
000001a0: eed2 703e 7b38 15be c71e cdbe d810 a3be
000001b0: 17be 36be 5d48 c9ba 8671 49be a600 91be
000001c0: 1bd6 73be 87ad 9b3c 7f55 2c3e d02a 8abe
000001d0: 8cad 90be 7188 a1bd 9766 883c 4e31 8cbd
000001e0: 22c0 aa3d 2724 fa3e a00e 223f 95a6 9cbe
000001f0: 837a d93d b8f0 c2be b90c 0b3e d3e8 07be
00000200: 68db 233a 101b c4bd 01f1 b83e 2edd c53d
00000210: 282b eab9 855e c9be cb42 6fbd 453b 4bbf
00000220: 5e21 b83b dc21 afbd 6378 8c3e 0383 8abe
00000230: 50ff 2f3f 5359 6c3f 23e4 5d3d c9c8 6cbe
00000240: 754a 14bf db12 1fbe 503a c3be eedd 13be
00000250: d438 c93e 7736 a8bd 38b6 493e 07a1 d8be
00000260: 4ca9 9cbe 7978 5a3e d26f 853e 964e b23d
00000270: 518c d1be 382b 8f3e f830 153e c001 c03e
00000280: cc89 37bf b2d3 b1bf 4820 36be 4674 8f3e
00000290: 8ff7 46bc 0b37 9f3e fc94 7dbe 317c 1dbf
000002a0: 2cee 34be eb9a 3a3d 59df 38bf 6f9d 39be
000002b0: 7bb3 a03e 0be5 d43c 1560 b2bd 5428 0a3e
000002c0: 6424 473e b133 a7be 72a6 5bbe fc46 4f3c
000002d0: 2a9b 1b3f 4c71 8cbc db58 833e b6a3 95bd
000002e0: a555 033d 51c8 e3bc 56e2 a0be 47cb f3bd
000002f0: 087f cb3e 625c 25bd fe5b a63d 7ac4 18bf
00000300: 5cc0 953d eb42 a73e c817 f9bd 400e 87be
00000310: 224c 0ebe 4f65 16be ee74 8d3e 34ea 1d3e
00000320: 2792 7abe afab 3b3f 4482 1abe 5746 c83d
00000330: 8a5a 8abe eedb d23e 1203 8d3c cad1 153f
00000340: c0b8 403e dfac f53e f04f f73e 48e7 a03e
00000350: accf a9be 169c 7fbd 4bb4 f9be c30b ccbe
00000360: dbac 123f 3b43 09be 6d76 10bd c0b4 07be
00000370: cf61 8abd 0573 b83d ae1c c2be 10fe 653e
00000380: 9231 2abd 863b 1a3f d6cc 4a3d 602e 62bd
00000390: 7a39 72bd de17 2cbf ec01 0cbe e7cc 423e
000003a0: 4006 05be ddda f23d 04f9 23bf 66f0 5bbb
000003b0: aa8b 5a3e f601 493e 69c2 7f3e 8340 323e
000003c0: 3656 98be fdef 4ebf b572 663e 55d9 593c
000003d0: c36b f63e f492 a1bc 6d64 a33f 95d8 76be
000003e0: 280a 48bd 9939 f0bd b466 98be 4b57 c2be
000003f0: 7277 803e e8e9 a2bd b63d c13e 0bbd 323e

bias f4 [50]
0.06394422 -0.02048063 -0.012642133 0.08057524 0.09275667 0.015519954 -0.009707555 0.018106805
0.14578755 0.07370006 -0.021872226 0.02205151 0.00682903 -0.04236005 0.0696037 -0.09034554
0.09806388 0.05703168 0.12724876 0.08418347 0.028051145 0.044806913 0.0071592126 0.036177345
-0.037506107 -0.029164976 0.00336309 0.05044405 0.1301862 -0.06611455 0.053795803 -0.069906905
-0.11896984 -0.095786914 -0.13932075 -0.11188819 -0.053731818 -0.045047756 0.0708527 0.035456043
0.063558474 -0.040469628 -0.13332124 -0.024663 0.05028344 -0.051643126 0.12170636 0.059270013
0.15479645 0.010989551
00000000: 30f5 823d ffc6 a7bc f320 4fbc a204 a53d
00000010: 36f7 bd3d 6847 7e3c 700c 1fbc b954 943c
00000020: 5549 153e 0ff0 963d 622d b3bc 5ea5 b43c
00000030: 0ec6 df3b bb81 2dbd 628c 8e3d 1507 b9bd
00000040: b7d5 c83d 0d9a 693d 804d 023e 6268 ac3d
00000050: 84cb e53c 7487 373d d497 ea3b b22e 143d
00000060: 01a0 19bd 63eb eebc 4a67 5c3b 6c9e 4e3d
00000070: 884f 053e 1167 87bd fd58 5c3d 5a2b 8fbd
00000080: 76a6 f3bd ee2b c4bd 19aa 0ebe a325 e5bd
00000090: e515 5cbd ff83 38bd 381b 913d 5b3a 113d
000000a0: f22a 823d 7bc3 25bd 5d85 08be 0f0a cabc
000000b0: 02f6 4d3d be87 53bd 2f41 f93d 1dc5 723d
000000c0: f682 1e3e 850d 343c

weight f4 [30, 50]
0.028454717 -0.055576056 -0.18484107 0.11157287 0.2151739 0.14832437 -0.30364087 -0.10972473
0.091555305 0.17306726 -0.12116719 0.29027766 0.026326638 -0.12938564 0.042500075 -0.2436509
-0.17380753 -0.012168943 -0.108632974 -0.397023 -0.06618868 -0.11303247 -0.05757373 -0.020243427
0.04143993 -0.089044474 -0.29071274 0.017804585 0.01801944 0.053228244 0.12539403 0.04081928
0.028998636 0.27007526 0.063792825 -0.047318574 -0.012595309 -0.36880046 0.10074232 -0.33446023
0.0707825 0.11352576 -0.030243851 0.08595101 -0.061307076 -0.27937865 -0.21347001 -0.018630898
-0.13905512 0.06674605 0.020462623 0.07235056 -0.29394865 0.17217998 0.26624602 -0.08331829
-0.32520652 -0.29035088 -0.036530826 0.05159105 0.17017984 0.35606778 0.13797699 -0.029148785
-0.04397698 -0.33544233 0.099598415 0.21934232 -0.18158913 -0.21270068 -0.27532864 0.038167268
0.029307107 0.034911495 0.06600624 -0.13251957 -0.16473189 -0.09585853 0.13367714 0.29938546
0.106938474 0.06881476 -0.3229483 0.29909247 0.03182545 -0.06415292 -0.13283688 -0.16981232
0.06767262 -0.2996812 0.16705756 -0.025878176 -0.13136972 0.016900754 0.01817292 -0.15194291
-0.038087547 0.07032797 0.06590073 -0.0984778 -0.094903365 -0.038897384 0.09541774 -0.061896123
0.021202013 0.034010462 -0.063801005 0.14479999 -0.017063146 0.11739628 0.033083424 -0.122116275
0.13904448 0.11482684 -0.0041465443 -0.018859403 -0.030506503 0.11374251 -0.16390741 0.29817572
0.10409582 0.17892489 -0.06601432 0.13541865 -0.16253309 -0.006225141 0.01940543 -0.07562645
-0.0627073 0.014262113 0.037512142 -0.017830458 -0.0059024147 -0.031525053 -0.16650079 -0.21318918
0.16011038 0.13971135 0.12588248 0.052745465 -0.18461066 -0.011875898 -0.055517633 0.019005222
-0.06310822 -0.04463193 -0.09075968 0.034293756 -0.03988717 -0.12573151 -0.14771336 0.03382295
-0.17813493 0.020751586 0.040461514 0.14898852 -0.083174534 -0.004452768 0.17625566 -0.19976357
0.12023633 -0.16505347 0.21969345 -0.08309729 -0.16961601 0.2935285 -0.26496723 0.022810671
-0.13671355 0.21930236 -0.100374766 -0.04525034 -0.1090105 -0.00060942373 0.027233245 0.1706393
0.13375303 -0.10006743 -0.03977506 0.052749906 -0.084062636 -0.031138992 -0.024219055 -0.06295342
0.033510227 0.08736121 -0.10123993 0.03988411 -0.15427482 -0.09954794 -0.122302234 0.07526306
0.10035677 -0.022312908 -0.08730492 0.07682662 -0.13946967 0.1388175 -9.452799e-05 -0.15187594
0.07963838 -0.14780903 0.022946775 0.030174939 0.30090854 0.2641057 -0.028593525 0.1379356
-0.015156262 -0.038384244 0.15540908 -0.17318995 0.02499817 -0.16353498 -0.16831271 -0.1281654
-0.008902425 -0.018160129 -0.12122632 0.063276075 0.10271336 -0.10410375 -0.12468867 -0.30625445
0.33916938 0.27555713 0.036534384 -0.15894957 0.16014618 -0.09806598 -0.14343087 0.12046735
-0.027070124 -0.07716529 0.028806694 0.06369641 -0.008983781 -0.005304079 -0.124058224 -0.25817487
0.07018431 0.2976586 0.07185601 0.08880403 0.021534288 -0.10393218 0.00441853 -0.09151715
0.027718876 -0.103808224 -0.021637695 -0.09201651 -0.2117828 0.009415081 0.024332564 -0.008423972
00000000: de19 e93c b8a3 63bd fa46 3dbe 5180 e43d
00000010: 8c56 5c3e 58e2 173e d176 9bbe 5cb7 e0bd
00000020: 5981 bb3d 8b38 313e 8126 f8bd 469f 943e
00000030: f6aa d73c ab7d 04be 8f14 2e3d 9f7f 79be
00000040: 9afa 31be 3f60 47bc f77a debd 9946 cbbe
00000050: ee8d 87bd 917d e7bd 6ed2 6bbd 8bd5 a5bc
00000060: ebbc 293d f35c b6bd 4dd8 94be ecda 913c
00000070: 819d 933c dc05 5a3d 4b67 003e 1e32 273d
00000080: 8c8e ed3c 4e47 8a3e d0a5 823d 1fd1 41bd
00000090: 8e5c 4ebc 6ad3 bcbe fd51 ce3d 5f3e abbe
000000a0: 6af6 903d 3280 e83d f4c1 f7bc 1507 b03d
000000b0: 211d 7bbd b80a 8fbe e297 5abe d39f 98bc
000000c0: 7764 0ebe 27b2 883d 3ba1 a73c 882c 943d
000000d0: 7080 96be f34f 303e 6651 883e c8a2 aabd
000000e0: 7881 a6be dfa8 94be 59a1 15bd 2351 533d
000000f0: a043 2e3e 844e b63e d749 0d3e 6fc9 eebc
00000100: 3521 34bd 19bf abbe 41fa cb3d 469b 603e
00000110: 80f2 39be 35ce 59be e0f7 8cbe 4855 1c3d
00000120: 7515 f03c 5bff 0e3d 482e 873d 36b3 07be
00000130: 7aaf 28be 7a51 c4bd a9e2 083e 0d49 993e
00000140: 8f02 db3d c1ee 8c3d 7b59 a5be a622 993e
00000150: 675b 023d 9b62 83bd 6406 08be 48e3 2dbe
00000160: f197 8a3d d06f 99be 2311 2b3e 78fe d3bc
00000170: c985 06be 7373 8a3c 60df 943c ec96 1bbe
00000180: b001 1cbd 1c08 903d f6f6 863d bbae c9bd
00000190: b25c c2bd dd52 1fbd 606a c33d ca86 7dbd
000001a0: d8af ad3c 8e4e 0b3d 1aaa 82bd 7346 143e
000001b0: 03c8 8bbc 766d f03d 7c82 073d 1918 fabd
000001c0: ad61 0e3e 562a eb3d bcdf 87bb 097f 9abc
000001d0: c6e8 f9bc d5f1 e83d 58d7 27be 7daa 983e
000001e0: 3030 d53d 1638 373e 8432 87bd 30ab 0a3e
000001f0: 136f 26be 45fc cbbb 23f8 9e3c 0ae2 9abd
00000200: af6c 80bd a3ab 693c 55a6 193d 2e11 92bc
00000210: 0b69 c1bb 6a20 01bd 2f7f 2abe 444e 5abe
00000220: faf3 233e 7e10 0f3e 56e7 003e a10b 583d
00000230: 940a 3dbe 2093 42bc 7566 63bd d7b0 9b3c
00000240: e23e 81bd f8cf 36bd 36e0 b9bd 9c77 0c3d
00000250: bb60 23bd c3bf 00be 2c42 17be ef89 0a3d
00000260: 0169 36be 3bff a93c f9ba 253d 7290 183e
00000270: 6957 aabd 86e8 91bb 5d7c 343e d28e 4cbe
00000280: 773e f63d c703 29be 52f7 603e e92e aabd
00000290: d2af 2dbe 5e49 963e c9a9 87be 72dd ba3c
000002a0: a3fe 0bbe cc90 603e 4991 cdbd 6c58 39bd
000002b0: e640 dfbd bcc1 1fba 4118 df3c 12bc 2e3e
000002c0: 8ef6 083e 27f0 ccbd 2ceb 22bd 4910 583d
000002d0: 0829 acbd 3317 ffbc 0a67 c6bc b9ed 80bd
000002e0: 0542 093d 6fea b23d e156 cfbd 855d 233d
000002f0: 38fa 1dbe cadf cbbd 9879 fabd 8523 9a3d
00000300: da87 cd3d 8fc9 b6bc eccc b2bd 4657 9d3d
00000310: 23d1 0ebe 2d26 0e3e 543d c6b8 5e85 1bbe
00000320: 7219 a33d 405b 17be e0fa bb3c 6f31 f73c
00000330: af10 9a3e dd38 873e f83c eabc fd3e 0d3e
00000340: f851 78bc cc38 1dbd 8f23 1f3e b558 31be
00000350: f6c8 cc3c b775 27be 2b5a 2cbe ca3d 03be
00000360: 7adb 11bc 8dc4 94bc 8145 f8bd e396 813d
00000370: 625b d23d 5934 d5bd c65c ffbd 62cd 9cbe
00000380: 9ca7 ad3e d315 8d3e 14a5 153d adc3 22be
00000390: 5cfd 233e d1d6 c8bd 8bdf 12be 96b7 f63d
000003a0: 2ac2 ddbc d608 9ebd 04fc eb3c 4373 823d
000003b0: b530 13bc d7cd adbb 3d12 febd 7f2f 84be
000003c0: cbbc 8f3d b566 983e 3e29 933d e3de b53d
000003d0: ad68 b03c 65da d4bd 51c9 903b 586d bbbd
000003e0: b212 e33c 6899 d4bd 8941 b1bc 2773 bcbd
000003f0: 97dd 58be b641 1a3c 1655 c73c b304 0abc

bias f4 [30]
0.0806351 0.19522928 0.08541259 0.0532115 0.013987535 0.09021438 0.06247362 0.036750253
0.0010728226 0.1823558 -0.012394323 0.10124288 0.015493316 -0.20959024 -0.15186661 0.15118009
0.080401324 0.102547765 -0.11514218 -0.055375315 -0.034524046 -0.18244264 0.21754515 0.07412346
0.06983231 0.15994406 0.13751048 0.046452068 -0.10214305 -0.14452884
00000000: 0424 a53d 2fea 473e ccec ae3d 4df4 593d
00000010: f92b 653c 51c2 b83d 57e4 7f3d 6f87 163d
00000020: f49d 8c3a 7bbb 3a3e 8f11 4bbc 6d58 cf3d
00000030: add7 7d3c d39e 56be ec82 1bbe f4ce 1a3e
00000040: 73a9 a43d 9004 d23d aacf ebbd 3ad1 62bd
00000050: 1669 0dbd 3ed2 3abe 28c4 5e3e 0ace 973d
00000060: 3e04 8f3d 60c8 233e 8ccf 0c3e 8644 3e3d
00000070: 6030 d1bd 5eff 13be

weight f4 [1, 30]
0.033867456 0.0024016364 -0.04272375 -0.008756344 -0.0036339196 0.013489746 0.013602857 -0.0018920546
0.009403428 -0.015554475 -0.007504508 -0.0005078079 -0.0027383144 0.023213556 -0.0046597132 0.008456216
-0.029127428 -0.040155295 0.008020175 -0.00793972 0.014623171 0.015843613 -0.03717604 0.006368038
-0.02278246 0.023242973 -0.008521378 0.041780517 -0.03536057 0.009819273
00000000: 9ab8 0a3d c664 1d3b 19ff 2ebd c576 0fbc
00000010: 0e27 6ebb 1804 5d3c 84de 5e3c d1fe f7ba
00000020: d610 1a3c 32d8 7ebc 60e8 f5bb 691e 05ba
00000030: 4b75 33bb 5b2a be3c 82b0 98bb f18b 0a3c
00000040: a59c eebc e179 24bd 0d67 033c 9915 02bc
00000050: 0696 6f3c 77ca 813c e745 18bd f9aa d03b
00000060: 48a2 babc 0c68 be3c 409d 0bbc 0c22 2b3d
00000070: 3fd6 10bd 04e1 203c

hidden_cell f4 [1, 20, 50]
1.1212359e-07 -7.6033063e-10 -5.295158e-19 -0.00020516892 -1.1978649e-09 2.7448386e-18 -1.1614899e-15 -5.026865e-10
-3.8662077e-11 1.780634e-16 1.2386085e-10 -1.1018717e-19 2.8778774e-14 -1.6720575e-27 -8.956288e-14 0.00014437239
-2.8552307e-13 2.6534103e-22 -4.794391e-14 0.98743016 3.1979543e-14 -4.722611e-05 -1.2844899e-12 -0.9998173
4.449418e-06 3.718308e-14 -9.714778e-18 -5.5398917e-08 2.2768996e-13 0.7908697 -9.310999e-14 -2.6566154e-06
-4.624225e-09 -1.1067328e-06 1.0376401e-12 0.804642 7.5374647e-22 -1.9750527e-12 2.2049955e-08 -1.6743903e-25
1.1162885e-09 8.31464e-18 0.34235308 2.1069835e-16 -8.4841015e-19 3.6634326e-08 1.1756693e-07 0.0028941832
-9.605168e-14 5.1536846e-09 9.200054e-12 -3.2258496e-10 -1.8252809e-23 -3.3407948e-09 -1.2336122e-12 3.179272e-23
-6.9476967e-25 -1.7882083e-15 -0.94196856 1.277956e-23 6.5453446e-15 5.0102393e-28 1.0706155e-19 -8.875e-40
-3.0218013e-17 0.043903384 2.1679126e-15 1.6523269e-25 2.6762431e-12 -2.6022739e-05 3.023534e-06 -0.028385028
-9.680525e-21 -7.7590695e-10 1.2248118e-19 8.77732e-18 -1.1611658e-18 -1.2356917e-10 2.811437e-09 7.326767e-09
-8.578764e-23 1.7276711e-09 -3.82349e-22 -9.549656e-09 9.345317e-16 0.9423494 4.0472093e-26 -2.538301e-14
7.145881e-14 -1.285226e-30 -2.1374737e-11 7.1431474e-05 1.8379491e-05 1.6789435e-20 1.30088345e-14 1.9825823e-12
3.050291e-08 0.99999964 -9.954802e-15 9.164264e-10 0.00039798205 1.5885929e-06 -2.8017566e-09 -9.895043e-06
5.4712065e-17 8.368058e-12 -9.702313e-13 -1.7124828e-10 -0.99984515 2.3717144e-12 0.00095671817 3.7942288e-10
2.700733e-13 -1.319985e-21 -4.723391e-14 -1.9247453e-05 1.9050573e-08 4.7036253e-11 -1.5307005e-06 -0.002921085
1.0 -0.2837566 1.6363083e-07 -1.13483184e-13 1.7489759e-13 4.03774e-11 1.6122394e-07 -2.1562847e-11
-7.8474024e-08 2.9708744e-07 -1.5947713e-13 0.0014517305 -5.7320454e-10 -0.0040973336 1.9555098e-05 -0.99997056
-6.8238554e-11 -2.9226567e-06 2.8328452e-06 -7.0728666e-15 7.372005e-05 8.3965193e-07 5.484681e-06 2.5465663e-10
-5.359645e-11 1.6916445e-05 0.00014935907 0.89338195 -9.964343e-06 1.3883957e-07 1.8922005e-08 -1.9329713e-08
-7.3810913e-19 -2.6621826e-06 -6.21329e-14 2.8718033e-17 -1.5968103e-15 -6.625126e-10 -3.463513e-13 9.812363e-16
2.3571398e-19 1.3066621e-20 2.6691031e-14 -2.2051899e-22 -2.6264516e-08 0.00011222811 -2.8717952e-12 5.3679756e-22
-8.612533e-15 0.9860765 3.4325131e-16 -4.900075e-09 -4.278551e-15 -0.9999945 7.1655677e-07 1.5129387e-13
-2.928195e-18 -3.7207197e-08 3.443455e-11 0.6201638 -1.9424569e-18 -3.1547503e-07 -3.1923897e-12 -8.0782625e-09
4.434544e-12 0.5856001 2.3368954e-20 -7.0366868e-12 5.7731557e-09 -2.7885817e-24 1.4174716e-08 1.6814144e-11
0.008462291 1.1217146e-15 -1.435023e-13 2.9225697e-09 1.7159007e-07 0.00045511604 -2.4676196e-14 -4.6262596e-07
4.7847516e-07 -7.87679e-09 -1.0397444e-18 -6.782526e-08 -4.0480356e-17 5.4677684e-17 -7.749059e-14 -8.7748875e-09
-5.1663108e-18 4.018249e-14 -2.5954779e-21 -2.8025699e-22 9.162037e-14 -8.980314e-17 -2.4091535e-06 2.0678992e-05
-2.6178979e-12 1.5010152e-22 -5.5042818e-17 0.9999323 1.3733466e-20 -1.1421178e-16 -5.2162543e-18 -1.0
0.00022664663 1.6783891e-13 -2.8017073e-20 -9.7521685e-08 1.2715859e-11 0.99331266 -5.926619e-20 -3.0064848e-06
-1.4439523e-12 4.3422145e-12 2.8242068e-12 0.4158269 9.9025526e-20 -2.6873677e-11 8.166677e-10 -4.6784705e-24
3.1401132e-08 1.3494292e-10 0.016518869 1.4406367e-16 -1.7576498e-12 1.0691044e-09 1.9241173e-07 3.8287755e-05
-1.9098562e-14 -7.387689e-07 1.7336528e-05 2.2086338e-08 -1.713836e-08 -8.163675e-06 -2.4834269e-12 4.002179e-11
00000000: 98c8 f033 83ff 50b0 1549 1ca1 9d22 57b9
00000010: 20a2 a4b0 8988 4a22 6a63 a7a6 6b2d 0ab0
00000020: a109 2aae 0a4b 4d25 bb2f 082f 0716 02a0
00000030: ab9b 0129 5b79 0493 7cad c9a9 ab62 1739
00000040: 36bc a0aa 8963 a01b 91eb 57a9 39c8 7c3f
00000050: e705 1029 a614 46b8 a0c6 b4ab 07f4 7fbf
00000060: 364c 9536 2c75 2729 be34 33a3 c1ef 6db3
00000070: 952d 802a 7076 4a3f 41aa d1a9 4e48 32b6
00000080: 1de3 9eb1 0d8b 94b5 ed08 922b 05fd 4d3f
00000090: 4fce 631c 63fb 0aac 5d68 bd32 8c47 4f96
000000a0: e96b 9930 c760 1923 e748 af3e 2deb 7225
000000b0: 0f68 7aa1 de57 1d33 1a79 fc33 56ac 3d3b
000000c0: 064a d8a9 4a14 b131 5cd9 212d cc57 b1af
000000d0: c487 b099 e293 65b1 909d adab 7bbd 191a
000000e0: 5305 5797 9fda 00a7 da24 71bf 5131 7719
000000f0: 26d2 eb27 e4c7 1e12 bcca fc1f fda9 0980
00000100: 225b 0ba4 09d4 333d ee36 1c27 548c 4c16
00000110: e952 3c2c 684b dab7 ebe7 4a36 b887 e8bc
00000120: 25dc 369e 9947 55b0 aa99 1020 b9e9 2123
00000130: 9b5b aba1 a1dd 07af 5333 4131 edbe fb31
00000140: fa6b cf9a 0673 ed30 a41d e79b d50f 24b2
00000150: 22ae 8626 cf3d 713f 7968 4815 3ca1 e4a8
00000160: 33e9 a029 338a d08d a103 bcad 7bcd 9538
00000170: a82d 9a37 5d92 9e1e a958 6a28 0783 0b2c
00000180: 4e02 0333 faff 7f3f 6c54 33a8 c6e7 7b30
00000190: 3fa8 d039 a337 d535 0689 40b1 e302 26b7
000001a0: 9b50 7c24 6236 132d 448c 88ab 1b4a 3caf
000001b0: daf5 7fbf 02e5 262c 45cc 7a3a 0697 d02f
000001c0: aa09 982a 7278 c79c feb8 54a9 9775 a1b7
000001d0: a7a4 a332 1dde 4e2e 7872 cdb5 ad6f 3fbb
000001e0: 0000 803f 8c48 91be 80b2 2f34 9a8a ffa9
000001f0: ccea 442a e994 312e e61c 2d34 37ab bdad
00000200: 8d85 a8b3 637f 9f34 278e 33aa fe47 be3a
00000210: af8f 1db0 ed42 86bb 410a a437 12fe 7fbf
00000220: e40e 96ae dc22 44b6 e91b 3e36 aed3 fea7
00000230: 279a 9a38 7164 6135 0d09 b836 bcff 8b2f
00000240: 3db8 6bae cae7 8d37 459d 1c39 aeb4 643f
00000250: 872c 27b7 ee13 1534 ee89 a232 7d0a a6b2
00000260: f3d9 59a1 f3a7 32b6 2ee9 8ba9 4570 0424
00000270: e71f e6a6 2e1c 36b0 7cfa c2aa 3b69 8d26
00000280: 1724 8b20 4dd2 761e 5469 f028 a94b 859b
00000290: 489c e1b2 025c eb38 aa15 4aac b33c 221c
000002a0: 4c26 1ba8 826f 7c3f f4de c525 845d a8b1
000002b0: ab26 9aa7 a4ff 7fbf 6859 4035 7d57 2a2a
000002c0: 0a10 58a2 bfcd 1fb3 db71 172e 0ec3 1e3f
000002d0: f953 0fa2 8f5e a9b4 fba4 60ac 93c8 0ab2
000002e0: d206 9c2c e3e9 153f aab6 dc1e d794 f7ac
000002f0: 375d c631 8dc1 5798 0f85 7332 16e6 932d
00000300: 6ca5 0a3c f7a7 a126 b991 21aa 64d6 4831
00000310: 523e 3834 a49c ee39 6f43 dea8 d45e f8b4
00000320: 9070 0035 7d52 07b2 6f70 99a1 55a7 91b3
00000330: c5ae 3aa4 0428 7c24 497e aea9 5dc0 16b2
00000340: 6d9a bea2 42f7 3429 d81b 449d ab67 a99b
00000350: 8c4f ce29 6b12 cfa4 f1ac 21b6 cc77 ad37
00000360: db37 38ac 2c76 351b 17d7 7da4 90fb 7f3f
00000370: 7cb5 811e 5ead 03a5 2172 c0a2 0000 80bf
00000380: fea7 6d39 46f8 3c2a 904e 049f 1d6d d1b3
00000390: 23b3 5f2d bd49 7e3f 37f0 8b9f 04c3 49b6
000003a0: dd37 cbab 31c7 982c 63bc 462c 43e7 d43e
000003b0: 42d1 e91f 2462 ecad e17b 6030 54fd b498
000003c0: e9dd 0633 0e5f 142f 9452 873c 1718 2625
000003d0: 025e f7ab c4ef 9230 bc99 4e34 2a97 2038
000003e0: 4906 aca8 d04f 46b5 e96d 9137 5fb8 bd32
000003f0: a737 93b2 b8f6 08b7 71c1 2eac 8804 302e
