saved_model/model_agg_h2v_subnet.pt (torch_old, 80833 bytes, 12 tensors)

weight_ih_l0 f4 [200, 8]
00000000: d1d1 0fbf 3061 9ebe fa54 a6be 19f5 a6be
00000010: b7a4 00c0 a5da 5440 388e 173f 81b6 d03f
00000020: 01f8 2a40 2ded 37bf 51d7 183f 0071 14bf
00000030: 3392 9f3f 34df 71bf 03ca 64bf 49a9 a93e
00000040: e9e4 b0be 49c4 1dbf 63f6 b4be bf1b 0abf
00000050: d29a 53c0 44a6 ee3f 7480 ecbf 49ee d23e
00000060: b5db 2abf fc5b 1cbf d633 4fbf 05ab 3ebf
00000070: df5b d1be 0d4f 29bd 556e 21bf 5346 253e
00000080: b310 5d3e 089d efbc 0d84 27bd 7da2 aa3b
00000090: 0618 8fbf a238 85bf 508a 1b3f 7c0e 943f
000000a0: d316 56bf 4079 143e c8c9 5b3d 78a4 6a3e
000000b0: 6117 aa3e d32b ca3e 767c 2c3f 169c acbe
000000c0: 9cda 463f 4af9 11bf 2c07 a83a 21ca 1cbe
000000d0: 44cf bbbf f36c c33e 265e 893f 1551 cabe
000000e0: 7c4a 3bbf 3a5c 50bd ed95 07be df20 193e
000000f0: 91d2 fc3e 74f3 07bd a0b2 113f 806e cabe
00000100: 58ec 2dbf 85ef 04bf 7678 1fbf 1b72 b5be
00000110: 7c63 88bf 17bc a4bf ef2c 843f 2bbd 9c3f
00000120: d6e7 81be 1690 29bf 84a2 17bf 3b78 1fbf
00000130: 922f e23e 6b7a b5bf e110 5abf c9cc fc3e
00000140: 3bda 13bf eefb c2be f36f d5be 1586 a0be
00000150: ae78 95bd aba8 343c 8ba6 983f 457d 7d3f
00000160: 3470 e6be f693 2ebf 575f ecbe bfd6 d4be
00000170: 38f4 e1bf b53c 20bf 4399 36be 84ab 6fbe
00000180: 9c72 133f 5c3e bebe 10ff 6abd f808 71be
00000190: 9350 ab3f 5f69 78bf 1947 a13d 4cfa f83f
000001a0: d72b 07bf 37ab 86be 0fbe acbe 7980 c3be
000001b0: d428 19bf 6944 74bf 18fb 9abc 04b9 07bd
000001c0: 2650 b93e 5280 d13e 585c a33e cb90 a33e
000001d0: 5a0a 06c0 4969 143f 9988 92be b603 9ebc
000001e0: 7651 573f 005c 543f 1681 223f 7f30 313f
000001f0: 267c 03c0 3eb0 50bf b1af a23d 408f 52be
00000200: 1fe1 aebf 715a 1b3c 8963 ebbe 314a 3f3d
00000210: 9d69 3ac0 3bfc 933f 3f03 633f c94f a4bd
00000220: ecf0 1abe 4e1c 3dbe 3b39 5abe c1ee 8fbe
00000230: c8af b9bf a4ef 01c0 1193 eebe a12d a5bd
00000240: 2972 c1bd 4c17 11bf 6715 c8be 616d f6be
00000250: 44cf bebf fa41 d8bf 6a3d 6bbe 1c30 9fbe
00000260: 326c b4be a6ab 91be 3e0f cabe e661 8cbe
00000270: fe19 51be 6fa5 2ebf a227 8d3d 2c82 0cbe
00000280: eae0 ec3d 7342 43bf ae31 86be 5096 1abf
00000290: 678c b9bf db6b 4bbf 2fa0 e53d 5266 023f
000002a0: d2fe 8b3c d269 efbe 8aa6 a8be 982b 0ebf
000002b0: 35a5 b0be eda8 32bf 2bb8 69bf 0634 91be
000002c0: c1db 7ebe 9d35 eabe 644c 18bf a18b efbe
000002d0: e932 133f bf21 2cc0 d989 1bbd 831f 10bf
000002e0: 2595 06bf 3d7a 4cbf d249 4bbf 205b 21bf
000002f0: f4d3 9cbe 7ea8 043f 8d38 4bbf 411e e6be
00000300: a772 abbf 79a9 313e 9df0 14bf b65a 833d
00000310: 1221 c73c 7cd8 26be c299 4bbe 90c7 223f
00000320: 68ac bcbe b69a bfbe df67 a6be 297e 01be
00000330: f302 80bf a56d b03e 005b ac3d 41a0 db3d
00000340: fd92 833f 6de0 13be 54f7 bc3e c0b7 f33c
00000350: 15ef e43f 35bd b43e 0dd8 b93f 0ab0 fd3f
00000360: 4ded d73d a91f e2be a6ef 9cbe 2e6b 9ebe
00000370: d823 c5bf 2db0 27bf 6018 09bf f3fb 5c3f
00000380: 3494 6c3f c840 02bf 7284 d63e 7679 a7be
00000390: 51cc 76bf e3e5 df3f 4db3 b33e e5da 6bbe
000003a0: 01d5 17bf 6be6 9dbe b0f4 d8be 33ac d9be
000003b0: 8e12 23bf 6104 7dbf 69d7 6bbe 0c07 25bd
000003c0: fb16 2ebe 7fba 52be 4c89 e1bd 602d fbbd
000003d0: d26c 9dbf 16ca 053f b43d d1be a510 c63e
000003e0: 6be7 f5bd 8254 c5be 0113 b8be a478 acbe
000003f0: 54a4 c93e 7e64 c8bf 4731 95be 481e 823d
-0.5617953 -0.30933523 -0.32486707 -0.3260887 -2.0100534 3.325845 0.59201384 1.6305696
2.671387 -0.71846277 0.59703547 -0.57984924 1.2466491 -0.94481206 -0.89370745 0.33136967
-0.34549645 -0.6162763 -0.35344228 -0.5394859 -3.3063245 1.864449 -1.8476701 0.41197422
-0.66741496 -0.61077857 -0.8093847 -0.74479705 -0.40890405 -0.041335154 -0.6305898 0.16140108
0.21588401 -0.029249683 -0.040897418 0.0052073584 -1.1179206 -1.0407908 0.60757923 1.156692
-0.83628577 0.14499378 0.05365923 0.22914302 0.33220962 0.3948656 0.6737741 -0.33712834
0.7767732 -0.5702101 0.001281952 -0.15311481 -1.4672627 0.3816906 1.0731857 -0.39514986
-0.7316053 -0.050869204 -0.13240786 0.14953946 0.493794 -0.03319116 0.56913185 -0.3953743
-0.67938757 -0.5192798 -0.62293184 -0.35438618 -1.065536 -1.28699 1.0326213 1.224523
-0.2537219 -0.6623548 -0.59232354 -0.6229283 0.44176918 -1.4177984 -0.85182005 0.4937499
-0.5775487 -0.38082832 -0.41686973 -0.31352296 -0.072984084 0.011026542 1.1925825 0.9901927
-0.4500748 -0.6819452 -0.4616649 -0.41570088 -1.7652655 -0.6259263 -0.17831902 -0.23405272
0.57596755 -0.3715695 -0.057372153 -0.23538578 1.3383964 -0.97035784 0.07874889 1.9451385
-0.5280127 -0.26302502 -0.33738753 -0.38183954 -0.59827924 -0.95416886 -0.018918559 -0.03313543
0.3619396 0.40918213 0.3190639 0.31946406 -2.0943818 0.5797315 -0.2861984 -0.019288879
0.84108675 0.8295288 0.6347822 0.69214624 -2.0544524 -0.81518924 0.07943667 -0.20562458
-1.3662452 0.009482012 -0.45974377 0.046701614 -2.9126961 1.156135 0.8867683 -0.0802303
-0.15130967 -0.18467829 -0.21310894 -0.28111842 -1.4506769 -2.0302515 -0.46596578 -0.08065344
-0.094456024 -0.56676173 -0.3907883 -0.48130324 -1.4907002 -1.6895134 -0.22972646 -0.31091392
-0.35238796 -0.2845127 -0.39464754 -0.2741844 -0.20420071 -0.6822118 0.06892325 -0.13721532
0.115663365 -0.7627327 -0.26209778 -0.6038561 -1.4495972 -0.7946145 0.11212193 0.5093738
0.017089281 -0.46760422 -0.3293956 -0.5553527 -0.34501043 -0.6978901 -0.91296643 -0.28360003
-0.24888517 -0.4574403 -0.5949156 -0.46786216 0.5749956 -2.6895597 -0.03797326 -0.56298083
-0.52571326 -0.7987402 -0.79409516 -0.6302967 -0.30630457 0.518196 -0.79383165 -0.44944957
-1.3394364 0.17349805 -0.58179647 0.06413786 0.024307761 -0.1629352 -0.19882873 0.6358576
-0.36850286 -0.37422723 -0.32501122 -0.12645783 -1.00009 0.34458652 0.084157944 0.107239254
1.0279232 -0.1444108 0.36907446 0.029750705 1.7885462 0.35300604 1.4519058 1.9819348
0.105433084 -0.4416478 -0.30651587 -0.30941147 -1.5401564 -0.655032 -0.5355282 0.86321944
0.9241364 -0.508801 0.41897923 -0.32709855 -0.9640551 1.7492031 0.35097733 -0.2303272
-0.59309393 -0.30839857 -0.42374182 -0.4251419 -0.6370019 -0.98834807 -0.23031391 -0.040289924
-0.17000954 -0.20578955 -0.110125154 -0.12264514 -1.2298834 0.52261484 -0.40867388 0.38684574
-0.1200703 -0.38541037 -0.35952 -0.33685791 0.39383185 -1.5655668 -0.29139158 0.06353432

weight_hh_l0 f4 [200, 50]
00000000: 21ef 1cc0 43d5 d03d 4c7c a13f 7097 1040
00000010: 92cf 16c0 c69a 47bf 7835 0abf 0d54 9a3e
00000020: 376f 18be 447a a3bf df4a 7abe 8913 cabe
00000030: 4e8e 903f 3f5f fbbe cd17 63be bb62 0340
00000040: ead3 b8be 5dbb 9d3e 9925 0b3f e353 8f3e
00000050: b668 473f bc7e db3f be77 673e 07d4 2fbf
00000060: 9fa5 15bf 16e5 ba3e eae0 d5be ffab 733f
00000070: 3f71 f43e 96db 913e 8567 6ebd 0f13 d33f
00000080: 1197 4e3f 5a55 d93f da5c fdbe 90db 41bf
00000090: b0b4 b6bf 1dbb 0bbf 758b 98bf 579d 24bf
000000a0: e329 efbf db29 9f3f dbfb 40bf 7e33 ad3f
000000b0: 1b77 8f3f 9acb 8cbe a278 943f 2eb8 debf
000000c0: 5b05 99be bf6a 903f 642e 2ebf 353d 5f3f
000000d0: f7bd 48bf 9323 0940 a88b 69bf dcf0 50bf
000000e0: bdb5 95bf e05a b840 cc56 803f 6a54 403f
000000f0: a596 1840 b7d9 2b3f f592 bdbf 65a1 cc3d
00000100: 3347 1f3e a486 fd3f 3446 b93f bcdf fe3d
00000110: 43b3 65bf c2b7 c23f 7c3d 0e40 0175 1d3f
00000120: a4ca 103f e9ba f73e 8994 b03e 18a3 c0bf
00000130: f8b5 313f ae57 643f 8ef3 cb3e 1c97 6f3f
00000140: e102 56be 576a 643f ab0a ba3f fd59 ee3f
00000150: 280a a240 7820 1cc0 44f0 abbf ae5d 5440
00000160: de9a d03f 8f70 1fc0 2697 123f c1d8 1f40
00000170: aebc 2140 6939 c53f 46a2 c33e b0c2 023f
00000180: c453 3f40 8c6a 8d3f f1b3 173e ec1c 713e
00000190: 60fc 28bf 60dc 4e3f bc4e b2bf a7b7 e03f
000001a0: 673f 08c0 3974 2a3f 20be 4fbd ba27 42bf
000001b0: 4ea5 dcbe 9cb8 3f3f 4c4d 743f caed ca3e
000001c0: 883c 9a3f e14d 8fbe 941b aa3f 930a 983f
000001d0: 12ef e7bd c4ad 92bf 423f 22bf f626 713c
000001e0: 5a1f c43e 2452 1e40 5337 e5be 104d b43f
000001f0: 9434 1cbf 9735 ddbf 3571 f13b 4579 0dc0
00000200: dbba b73f 660c f23f c29f 673e 8023 92bf
00000210: dfe9 97bd 2832 3c40 c52f 4f3e c35f 0e3d
00000220: 1c08 90bf 0c49 ec3f fd44 e43f c788 acbf
00000230: c946 0ebf 6041 9e3d 7b06 6bbf e09d 55bf
00000240: 01d3 2e3f 0a45 6d3f 7694 063d 169d 553d
00000250: e097 91bf d097 8cbf 44b0 e03f 039c 463f
00000260: 397a 3340 76e8 50bf 6689 963f 697e db3b
00000270: 84f6 c33f 56ad dfbe c267 28bf 9bc3 04bf
00000280: 3dd9 03bf 442c 12bd 8f9e 143f 2b1d b6be
00000290: 34d3 06c0 468a cc3e 8ff8 0a40 bdfc f33e
000002a0: 4a1f 51bf 5057 6fbe faba f4be 5f46 e63f
000002b0: 16fc b4bf 3a0e 943e fe86 8c3e c579 793e
000002c0: 527d 623f 1e1f 93bf d5d1 c03f ad49 37bf
000002d0: 1f83 513e c8c7 9e3e ee60 69bf 70fe c93f
000002e0: 7c90 a0be 5f15 cb3e 05c6 b43f c2af d73d
000002f0: 808e 453c 4b3f 27bf bcde f03e ff16 553b
00000300: 5346 593e 23cd 0740 b585 8dbf c4a4 01bf
00000310: b8c3 a4bd cffa 4d3f bfcc 8e3f 1a50 7d40
00000320: 6a9f 7840 5b0d debe a7af 1640 eafb bb3d
00000330: 48ae 15bf 7e92 2ebf 224e 603f 79cc 1540
00000340: ba93 9e3f 8f5f 4abf 82bb 42be 1f82 48be
00000350: fdaa c7bf 195c 99be 0c5e 85bf f127 b03e
00000360: 1a49 b73f 8cb0 e5be 690d 0a3e 7107 393f
00000370: 9b83 6e3e ceb9 92bf d197 c1bf 1d01 323f
00000380: 61ec a83f 48cb 7c3f ee7b 49c0 b863 f73f
00000390: 7925 493e a645 e7bf 7c98 dfbe e7bc 72bf
000003a0: 9b85 343f 1875 fa3f f85d 51bd 969a dfbe
000003b0: 3832 51bf 7c92 bb3f d762 b3bf 71c3 3b3f
000003c0: 5020 4c3f a612 0cc0 352c 9740 11d3 2dbf
000003d0: d2db 6ebe 83f8 b7be 77e8 de3e 335a 8dbf
000003e0: 2ca7 073e 6914 5840 1a76 34bf 7a74 c33e
000003f0: 68b3 e6bd 8023 8abf 70c1 00bf 9dd1 de3e
-2.4520953 0.101969264 1.2616057 2.259243 -2.356419 -0.7797054 -0.53987837 0.3014225
-0.14886175 -1.2771688 -0.24442624 -0.3946803 1.1293428 -0.49096105 -0.22177048 2.052901
-0.36099178 0.3080701 0.54354244 0.27993688 0.7789415 1.7148051 0.22604272 -0.68682903
-0.5845584 0.36502904 -0.41773158 0.9518432 0.4774265 0.28487843 -0.058204193 1.6490191
0.8069926 1.6979172 -0.49484903 -0.7572565 -1.4273891 -0.5458239 -1.1917559 -0.6430258
-1.8684658 1.2434648 -0.753843 1.3531339 1.1208223 -0.27499086 1.1599314 -1.7399957
-0.29886898 1.1282576 -0.68039536 0.8720277 -0.78414863 2.1427963 -0.91228724 -0.8161752
-1.1696087 5.761093 1.0026488 0.75128806 2.3841946 0.6712908 -1.4810473 0.09991721
0.15554504 1.9806714 1.4474549 0.12445018 -0.89726657 1.5212328 2.2225027 0.6150666
0.56559205 0.4838479 0.34488323 -1.5049772 0.6941829 0.8919629 0.39834255 0.9358995
-0.20899536 0.8922476 1.4534506 1.8621212 5.06374 -2.4394817 -1.3432698 3.3182178
1.6297262 -2.491245 0.57261884 2.4976046 2.527141 1.5408145 0.38209742 0.5107832
2.9894876 1.104814 0.14814736 0.23546189 -0.66010094 0.80805016 -1.3930278 1.7556046
-2.1288698 0.6658359 -0.050718427 -0.7584187 -0.43094867 0.74891067 0.95430446 0.39634544
1.2049723 -0.27989104 1.3289666 1.1878227 -0.11324896 -1.1459279 -0.63377774 0.014718762
0.3830517 2.4737635 -0.44768772 1.4086018 -0.6101773 -1.7281979 0.0073682317 -2.2105267
1.4353899 1.8910034 0.22619537 -1.1417084 -0.07417654 2.9405613 0.20233066 0.034759294
-1.1252475 1.8459792 1.7833554 -1.3479241 -0.5557676 0.07727313 -0.91806763 -0.83444023
0.68290716 0.9268347 0.032856427 0.052151762 -1.1374474 -1.098383 1.7553792 0.77581805
2.8043349 -0.8160471 1.1760681 0.006698419 1.5309606 -0.43686932 -0.6578332 -0.5186097
-0.51503354 -0.035686746 0.5805444 -0.35569128 -2.1066408 0.39949244 2.1714208 0.47653762
-0.8168837 -0.23373151 -0.47798902 1.7990226 -1.413943 0.28917104 0.2744674 0.24362858
0.88472474 -1.1493871 1.5064036 -0.71596795 0.20460175 0.31011796 -0.9116353 1.5780773
-0.31360233 0.39664742 1.4122931 0.1053157 0.0120579 -0.6533095 0.47044933 0.0032514927
0.21218233 2.1218956 -1.1056429 -0.5064204 -0.08045143 0.8046083 1.1156234 3.958014
3.8847299 -0.43369564 2.354471 0.09178908 -0.5846906 -0.6819228 0.8761922 2.340605
1.2388833 -0.7905206 -0.19016841 -0.19580887 -1.5599056 -0.29953077 -1.0419326 0.34405473
1.4319184 -0.44861257 0.13481678 0.7227698 0.23292391 -1.1462953 -1.5124456 0.6953295
1.3197137 0.9874768 -3.148189 1.9327307 0.19643201 -1.806813 -0.43671024 -0.9481949
0.70516366 1.9566984 -0.051115006 -0.43672627 -0.8171725 1.4654078 -1.4014539 0.73345095
0.79736805 -2.1886382 4.7241464 -0.67900187 -0.23326042 -0.35931787 0.43536732 -1.1043152
0.13247365 3.3762457 -0.7049271 0.38174802 -0.11264688 -1.0792084 -0.5029516 0.43519297

bias_ih_l0 f4 [200]
00000000: e82c 5bbf d097 19bf 1cae edbf 42af dfbe
00000010: 85cc d8be a7a3 6cbf 708e 0fc0 0f57 8abf
00000020: 419a 03c0 5e34 bcbe 6210 f4bf 8b4c 25c0
00000030: 2758 093e a1de 17c0 6ec5 c03e a685 15be
00000040: 5e0c a1bf 4088 9bbf 9c6e c1bf a3a9 b0bf
00000050: 4ab8 b6bf f32b d3be da9e 4fbf 8131 87bf
00000060: 0e31 cebf 0da6 f0bf 0af3 55bf bb66 1bbf
00000070: 11cc 1c3f 7512 b0bf 42c7 b8bf bc67 95bf
00000080: 9e16 73bf 6251 7dbf eb9e 3cbf af2a 9ebf
00000090: 2963 f1be 5dcb d1bf bb36 1ac0 8d97 f8be
000000a0: ed19 8e3f 6dd6 76bf d293 32bf 9d47 693f
000000b0: a327 c73d d96e bdbf a50f 92bf dc04 40bf
000000c0: 706e febe 1d99 7ebf 76b2 9ebf 806f d1bf
000000d0: 9038 e8bd edb8 3dbf 8921 cabf 81f9 9fbf
000000e0: d13f 8cbf 6871 6d3f c2f0 64bf d9ea 37be
000000f0: 1c7f 05bf 1b4b 78bf c064 9dbf 1a85 6dbf
00000100: e6e5 46bf 262a 253f 54e7 babe 4b33 3dbf
00000110: a42f 89bf 4eba 8bbf 6b8e ccbe 1836 ecbf
00000120: 42f4 26bf 2a8a a1bf 2005 67be 1b7a 123e
00000130: 3328 81bf 845b e9bd cf06 053f caff c0bd
00000140: f1db 2bbf 8dc4 4fbf 290d 77bf 4524 093f
00000150: c5d1 62bf 01d5 953f 5697 6cbf 22c1 bdbe
00000160: 955f 313f 9a09 8abf 5e02 d5bf 6756 63bf
00000170: ea40 c1bf bd22 30bd 4f99 c3bf a1b8 4dbf
00000180: 4aef e73f 4f2f f9bf d893 c7bf b4ec bb3d
00000190: 2739 2a3e 733c fc3e 0c64 e6be abfc 5bbe
000001a0: 0089 a03e 4758 313f f52a 0f3f 4084 e93d
000001b0: fe1c b8bb d6b0 693e e1ac 03be ae43 1dbd
000001c0: a7dd 67be 72f1 3abd 2975 d9bd 6ad0 38be
000001d0: f83a 0ebe 4edc 683e 3a99 ab3e 08a0 433e
000001e0: c64c 0dbe 3357 99bd 27a1 b03e 5ffc 48bf
000001f0: 64b4 37be 5809 4a3e 7cd2 463e 50ab a0bc
00000200: 99a3 22bf 5a75 eebd 0b83 683c 67cb 353e
00000210: 4647 cbbd be5b 80be ae85 86be 2b28 343f
00000220: 0544 54be 41c0 08bf 4d46 91bd 70b3 82be
00000230: a780 a53f 126e 8ebd ac78 63bf 7d1a a0bf
00000240: 3010 99be b918 8a3d 1b7a 88bf 8c2b ee3e
00000250: c72c 893e e6be d0be 0421 0dbf cf4e 453f
00000260: 3c4d 1c3f 51b4 c2be eba6 333e ea77 a9bf
00000270: ccfd 2ebf da0c 77bf 493d 473e 9448 0fbf
00000280: 6213 80bf e390 b2be 6efb aabd df6c b0bf
00000290: 88d5 9fbe b267 cb3e d504 4cbe c948 a5be
000002a0: 4539 9ebf 4c95 6abf cd39 36bf 3bb2 80bf
000002b0: 179b 89bf d2cb a6bf c11d 1cbf 7611 42be
000002c0: 3593 413f c1b7 aebe de5b 9abf 1b4d c6bf
000002d0: 6452 84bf e8b2 92bf 310a f7bf 8686 2b3f
000002e0: 13b1 21bf 3e4f cbbf 9a47 ce3e 1e3b 7bbe
000002f0: f2d2 6abf 7fbb 73bf ef3d 0fbf 38de 83bf
00000300: eb97 263f e90d 523f 1849 193f 1cfe 40bf
00000310: fe40 c7bf 7384 583d b8d4 81bf fdd8 983e
-0.85615396 -0.5999727 -1.8568759 -0.436884 -0.42343536 -0.92437214 -2.2430687 -1.0807818
-2.05629 -0.36758703 -1.90675 -2.5827968 0.13412534 -2.3729632 0.37650627 -0.14601764
-1.2581899 -1.2150955 -1.511188 -1.3801769 -1.427499 -0.41244468 -0.81101763 -1.0561982
-1.610872 -1.8800675 -0.83573973 -0.6070363 0.6124888 -1.3755633 -1.4435809 -1.1672282
-0.94956386 -0.98952305 -0.7367999 -1.2356776 -0.47145966 -1.6390187 -2.4095905 -0.48553124
1.1101662 -0.9642094 -0.69756806 0.911249 0.09724357 -1.4799453 -1.1411024 -0.75007415
-0.49693632 -0.9945238 -1.2398212 -1.6362152 -0.113389134 -0.741103 -1.5791484 -1.2498018
-1.0956975 0.9275117 -0.8942987 -0.17960681 -0.5214708 -0.969896 -1.2296371 -0.9278122
-0.7769455 0.6451744 -0.36504614 -0.7390639 -1.0717664 -1.0916231 -0.39952406 -1.8454008
-0.6521646 -1.2620289 -0.22560549 0.14304392 -1.0090393 -0.11394408 0.51963514 -0.09423788
-0.6713248 -0.8115929 -0.96504456 0.5357097 -0.8860133 1.1705629 -0.9241842 -0.3706141
0.6928647 -1.078418 -1.6641347 -0.88803715 -1.5097935 -0.04300188 -1.5281161 -0.80359846
1.81199 -1.9467562 -1.5591993 0.09176007 0.16623364 0.4926487 -0.44998205 -0.21483104
0.31354523 0.69275326 0.5592492 0.11402178 -0.0056186905 0.22821364 -0.12858917 -0.038394623
-0.22643147 -0.045640416 -0.1061805 -0.18048254 -0.13889682 0.2274029 0.3351534 0.19104016
-0.13798818 -0.07487335 0.3449795 -0.7851009 -0.17939907 0.19730127 0.19416231 -0.019612938
-0.6353088 -0.11643477 0.014191399 0.17753373 -0.09925704 -0.25069994 -0.26273865 0.7037379
-0.20729072 -0.53418356 -0.07093487 -0.25527525 1.2929887 -0.06954588 -0.88856006 -1.2508084
-0.29895163 0.06742997 -1.0662264 0.465176 0.26791975 -0.40770644 -0.551285 0.7707338
0.6105535 -0.38028196 0.17544143 -1.323972 -0.68356013 -0.96503985 0.19456972 -0.5597012
-1.0005915 -0.34876165 -0.08348738 -1.3783225 -0.312176 0.3972755 -0.19923718 -0.32282093
-1.2361227 -0.9163406 -0.71181947 -1.0054392 -1.0750455 -1.3030951 -0.609829 -0.18951973
0.75615245 -0.34124568 -1.2059286 -1.5492281 -1.0337644 -1.1460848 -1.9299985 0.6700214
-0.6316082 -1.5883558 0.40289003 -0.2453427 -0.91728127 -0.9520797 -0.5595388 -1.0302191
0.6507556 0.82052475 0.5987716 -0.7538774 -1.5566709 0.05286069 -1.0143042 0.2985305

bias_hh_l0 f4 [200]
00000000: d4b6 53bf fea6 19bf 8289 e1bf 20f2 84be
00000010: 6326 f3be a1be 72bf 6ca7 19c0 a3d7 a5bf
00000020: 2df5 0cc0 aec1 02bf e689 eebf 0b71 1dc0
00000030: 5e5f 973d e747 06c0 cbf4 783e 36e8 82be
00000040: afea 9dbf 30ac 99bf 6619 a5bf a779 b6bf
00000050: 935c bcbf e182 a9be 4410 3ebf 196d 9bbf
00000060: 8a4e b1bf 2bcd e9bf 46f8 81bf e7a2 2ebf
00000070: f9a8 333f e0bf b3bf 9295 b9bf a68a 91bf
00000080: 4c44 4ebf 9ac6 5ebf 77c3 1ebf db28 c1bf
00000090: 7129 0fbf 3d00 b7bf 3f1c 1dc0 0dab 2abf
000000a0: 4d2b 8b3f c3a1 52bf b5f8 00bf bd36 803f
000000b0: d312 d63d 7158 aebf 6413 96bf a058 5cbf
000000c0: 167d 21bf 5eec 72bf 2b16 a3bf f221 d1bf
000000d0: 92fc 2e3d bb1a 75bf 9993 b5bf 72c3 9ebf
000000e0: 5819 aabf 1819 763f 2538 84bf ad51 2abe
000000f0: 222c b6be 9df6 69bf 67ab a3bf 5af2 6ebf
00000100: 66ff 62bf 9600 143f 1a29 c4be 37fe 03bf
00000110: 1708 63bf 4e0a 91bf bb92 29be fa95 d6bf
00000120: 07df 1fbf 34c2 b1bf f626 7abd 3057 9abb
00000130: 0e15 4abf c039 0fbe e922 073f 3728 54be
00000140: 1639 09bf 22dd 64bf eb0a 76bf f026 a53e
00000150: 51fa 53bf 6962 a13f 681a 77bf 4697 b9be
00000160: 9763 313f 0767 77bf 6cd0 d5bf 2fdc 67bf
00000170: 68ad c6bf 1e54 13bd b784 bfbf ad38 49bf
00000180: 3809 de3f cd9b 08c0 ea3d bfbf b740 fa3b
00000190: 6368 893e e68b 123f bc0c e7be 28db b2bd
000001a0: aa98 6f3e 3336 433f d3d2 0e3f 2f84 cc3c
000001b0: 9aa6 1a3e f00b 5e3e 640a 98bb 8cfd 24bd
000001c0: 5995 8abe 5107 fb3d 2e02 c13c 22bd 9cbe
000001d0: 365c 69bb 9e67 c33d 1e05 923e cf6c 7a3d
000001e0: bc41 4cbe 51aa 2fbe dc00 923e 4bc7 1dbf
000001f0: f561 abbd 2e5d 313e 32aa 463e 1e64 4a3e
00000200: bd58 1abf f32d 7ebe 6f2c 85bd cc3f 4c3e
00000210: 409e 02be dcd7 d7be 0ba5 38be 0bb7 4c3f
00000220: 9282 a8bd c3c7 b9be 49c1 2abd fc53 6fbe
00000230: fdc8 9a3f adca 0dbe d801 85bf 7d9d a0bf
00000240: fa25 6fbe 6e3d b7bd 0e6a a2bf 6a4b c23e
00000250: cbf0 5b3e 2649 8cbe 0d0b b8be b712 6b3f
00000260: 02a8 263f e459 7dbe 0d5e d83d b6eb 98bf
00000270: 6093 4abf 725d 72bf df56 2c3e 36c4 d9be
00000280: 9d0b 63bf 9e8d 02bf 0ff4 f4bd d9ff b8bf
00000290: cff1 b2be 47eb e53e a6ec 92be 3175 00bf
000002a0: eb70 a0bf 3ae4 63bf fbda 2cbf 32ad 82bf
000002b0: 1b96 69bf 7b84 a6bf 8770 26bf 035e a6be
000002c0: a971 1f3f cdcd bebe b08f 90bf ef87 c9bf
000002d0: 4e7a 91bf eca2 91bf 5507 f8bf ce4d 493f
000002e0: 2255 04bf 1ea0 c2bf f5da 053f 757e 53be
000002f0: c21f 7dbf 564c 7dbf 26de 05bf c692 6ebf
00000300: 489f dc3e 997d 323f e46c 4c3f 47a7 1fbf
00000310: 3805 babf 9ffd e5bd 43c6 7cbf 8067 fc3d
-0.8270085 -0.60020435 -1.7620089 -0.25965977 -0.47490224 -0.94822127 -2.4008436 -1.2956432
-2.2024643 -0.5107678 -1.8635833 -2.4600246 0.07391237 -2.0981386 0.24312131 -0.25567788
-1.2337245 -1.2005672 -1.2898376 -1.4255875 -1.4715751 -0.33107665 -0.7424357 -1.2142669
-1.3852093 -1.8265737 -1.0153892 -0.6821732 0.70179707 -1.4042931 -1.449877 -1.1370437
-0.8057296 -0.8702179 -0.62017006 -1.5090593 -0.5592261 -1.4296948 -2.454849 -0.6666725
1.0872589 -0.8227808 -0.50379497 1.0016705 0.10452809 -1.362074 -1.1724668 -0.8607273
-0.6308149 -0.9489192 -1.274114 -1.6338484 0.04272134 -0.9574391 -1.4185668 -1.2403395
-1.3288984 0.9613204 -1.0329634 -0.1663272 -0.35580546 -0.91391927 -1.2786683 -0.9333855
-0.8867096 0.57813394 -0.38312608 -0.51559776 -0.8868422 -1.133127 -0.1655988 -1.6764519
-0.6244969 -1.3887391 -0.061072312 -0.0047101006 -0.78938377 -0.13986874 0.52787644 -0.20718466
-0.5360273 -0.8939992 -0.9611041 0.3225627 -0.8280383 1.2608157 -0.9652467 -0.36248225
0.6929259 -0.9664158 -1.670423 -0.9057035 -1.5521669 -0.035968892 -1.4962376 -0.78602105
1.7346563 -2.1345093 -1.494077 0.007637109 0.26837453 0.5724472 -0.45126903 -0.08733207
0.2339808 0.76254576 0.5579044 0.024965374 0.15102616 0.21684241 -0.0046399105 -0.040280864
-0.27067068 0.12257255 0.02356061 -0.30613047 -0.003560794 0.09541248 0.2851953 0.061138924
-0.1994695 -0.17154814 0.2851628 -0.6163222 -0.08368293 0.17320701 0.19400862 0.19764754
-0.60291654 -0.24822216 -0.06502616 0.19946212 -0.1275568 -0.42156875 -0.18031709 0.799668
-0.08228029 -0.3628522 -0.041688237 -0.23371881 1.2092587 -0.13846846 -1.0391188 -1.2548062
-0.2335433 -0.08947264 -1.2688615 0.3794816 0.21478574 -0.27399558 -0.3594593 0.9182543
0.6510011 -0.24741322 0.10564814 -1.1946933 -0.79131126 -0.94673836 0.16830014 -0.4253251
-0.88689595 -0.5099734 -0.11960613 -1.4453079 -0.3495011 0.44906065 -0.28696173 -0.5017882
-1.253446 -0.8902012 -0.6752164 -1.0209105 -0.9124467 -1.300918 -0.65015453 -0.324936
0.62282807 -0.3726639 -1.129385 -1.5744609 -1.136545 -1.1377845 -1.9377238 0.78634346
-0.516924 -1.5205114 0.52287227 -0.20653708 -0.98876584 -0.98944604 -0.52292097 -0.9319271
0.43090272 0.69722897 0.79853654 -0.6236462 -1.4532843 -0.11230015 -0.98740023 0.123244286

weight f4 [1, 51]
00000000: 298e 49be dcc9 fdbe 4fd9 803e 3ce4 bdbc
00000010: f25b e3bc 0084 283e e4ea a2be 0aa0 a8be
00000020: 1cf6 47bd 353e 0abc 7792 15be 8c9d 0dbe
00000030: 019d 563c f54a f33d 2971 373d a2b0 b1bd
00000040: 5137 0a3d 2289 b0ba 040a 443c 5236 0ebe
00000050: a1a8 17be a8f9 c4be c0f8 efbd e0c8 ec3d
00000060: 1804 9bbe b878 a13d a381 123c 7f7c bcbd
00000070: 8450 16be 337c e33d 5eca d6bd e4f2 50bf
00000080: dda6 2e3c b05d 0bbe 0e62 00bc 90d0 5e3f
00000090: 423d 3c3b 0042 c0be 0e11 6b3f 0eea 743d
000000a0: c4c5 833f aa89 8d3c c776 ffbd 496a e1bc
000000b0: 1c6e 86be cdfc ac3c e51d 73be 7f3a be3f
000000c0: b35e f6be 7e28 2cbc 682a a3b9
-0.19683136 -0.4956807 0.25165793 -0.02318012 -0.027753804 0.16456604 -0.31819832 -0.329346
-0.048818693 -0.008437683 -0.14606653 -0.1382963 0.013098956 0.11879531 0.044785652 -0.08676268
0.03374416 -0.0013468603 0.011965279 -0.13887909 -0.1481042 -0.38471723 -0.11717367 0.11561751
-0.3027656 0.078843534 0.008942041 -0.09203433 -0.14679152 0.111076735 -0.10487817 -0.8162062
0.0106599005 -0.13609958 -0.007835878 0.8703699 0.0028723036 -0.37550354 0.918229 0.059793524
1.0294728 0.017277557 -0.12473827 -0.027516501 -0.26255882 0.021116639 -0.23741873 1.4861602
-0.48119125 -0.010507701 -0.00031121378

weight f4 [50, 20]
00000000: 5378 38be 6b0e c6bd 87d8 75bd 2ee7 dfbd
00000010: 2204 83be 2982 e7be c16f 153e 380b f7bd
00000020: cd29 53be df4a 35be 8ea5 fdbd 2cde 2a3c
00000030: 85a1 bebd 17d1 54be d77e 1bbf a5c9 c03e
00000040: 358b bfbd fb6b 54be c959 83be f245 81bc
00000050: 494a 3cbf 2eee 683e 938d 8b3e 597b 8fbe
00000060: bd27 363f 8fb4 393d 0da8 7ebd cf7f 3a3e
00000070: 791f b93e e634 e63c 46ab 753e 959d 743d
00000080: 665a d83d a8ec 4d3c fb32 633e 2d42 0c3e
00000090: ec0f 80bf 2567 b1bb 9f4e a3be 6b76 b53e
000000a0: 521c e6bd 8f59 b43e 320a 19bc 2c17 02be
000000b0: 9651 233f 7654 dbbd 6f59 683e 4d31 12bf
000000c0: 774c 6b3e 16d9 123e 4c03 40be 14a7 9bbd
000000d0: 1583 b63d b990 8f3e ad4e 553e d7d5 4e3d
000000e0: 2846 39be 4ae3 b13d f9b1 283c ed95 a03e
000000f0: cfb1 973e 6ee7 0e3d 6969 85bc cd38 c7bc
00000100: 629e 333c 28cf 0ebe 990f 473d 503b 05be
00000110: 8e19 b23d bfe3 3fbe 10c2 cdbc 367a a2bd
00000120: 76ca 013f eb63 dfbc 7376 d13d f254 28be
00000130: ba87 bcbd 6cf3 6bbd 22bc a6be 9c7d 5bbe
00000140: 8d0a be3e 1bfb c3be ab35 62be 0f17 bb3e
00000150: 6c25 06bc 9a8a 8e3e 3ece c8be 2e77 423e
00000160: 0713 30bb e1cf 52bd 4bf4 263f b473 2fbe
00000170: 2297 d9bd 464d b9be f4da 69be dc30 abbd
00000180: 6648 073e b37d 1f3e 71f1 5a3e 2fa7 d9be
00000190: 53c9 a83e 6201 02be fc7d 95be 9bbf 53be
000001a0: 5f6a d8be 89e3 0dbd 7f94 c13e 0423 8e3c
000001b0: ca58 00be 7cc4 87bd 8afc 0fbf 3c50 5e3e
000001c0: ce20 953d 4517 283e 02eb a2be 97b5 bb3e
000001d0: 43c2 013e 5873 df3d d83b 233d 1cb3 84be
000001e0: f8ab f1bd 3ed0 de3a 6195 223e fd8f 20be
000001f0: a5a4 0f3e dc10 fbbe 858a 8a3f 293a 0b3e
00000200: 8643 c03c 97d6 033e 3a7a e1be b2b8 f2be
00000210: ea68 e3be ed9c ccbe 9bb5 febe 4436 88be
00000220: 3654 6fbf 43f9 b43e 466b 99bd 219c 16bf
00000230: cebd 723e 1157 bc3d 5895 ab3c 0c8c 49be
00000240: 1c4d 26bd e1fc 783d 66ba 173f 9172 1f3e
00000250: 6238 afbe b93a de3e 87a7 dcbe 89a2 863d
00000260: d354 86be a59b 443d 1650 033e 8a97 dcbd
00000270: 8ed7 ebbe 85cc f03e 9691 c43d 0e8a cf3e
00000280: 308b 9d3e 606e f73e c4c1 d7be 4d84 143e
00000290: 4623 a63e a132 b13e 75c4 57be a248 d73b
000002a0: eb96 263f 9224 f33e f609 a8be 48d1 013f
000002b0: 88b9 303e 8183 6d3e fb51 b03e 1b45 85be
000002c0: eb79 7bbe 144a bd3c 12ce 8fbd 2e04 5c3f
000002d0: a683 983d 9bd3 54be 9e37 e83e 1e78 39bd
000002e0: de2d 1dbf 7c4b 0f3e 4c2b dd3e 3a1b 593e
000002f0: 91d6 af3d 31dc 54bd ef76 c9bc b42b e43e
00000300: 22bd cd3d a631 9d3d 86f2 c9be b4a3 75bd
00000310: d606 d93d 0661 953e 4997 353e 6ce9 cd3e
00000320: 63f3 a93d cf5d 08be ed4f 8cbd 9458 7f3e
00000330: ae36 da3e ea25 e63e 2644 a8be 4997 a5be
00000340: f9fa 77be 2b75 f93e 156d 703d 244d 2dbf
00000350: 8498 01bf 414a 0f3f f523 ac3e 8eb6 383f
00000360: 817f 083f 094d 03bf b5af 71be 3ad8 143f
00000370: 1306 fcbc f706 e3bd 76f4 fabd 7f4d b73e
00000380: c497 52be c738 48be 7476 c23e 6422 64bd
00000390: 9b1a f13e 4409 c5bd 9868 fd3d 1f8e b8be
000003a0: 9aca b83e 78de b23d 88c7 293f 7bdc 09bf
000003b0: d21e b73e bcea 32be 5bac 293e 834a bdbd
000003c0: 9236 113f bbef 72be 6323 1cbf a4da 8e3e
000003d0: 3dbe 3ebe cb43 713d 66cd a7be 22c7 d7be
000003e0: 54de 22bf 4e4a 443f c2fc ef3d a700 f9be
000003f0: a7a4 ecbd 025f 803e bf66 f53e f549 c03e
-0.1801465 -0.09670719 -0.06002095 -0.10932766 -0.2558909 -0.45216492 0.14593412 -0.12062687
-0.20621414 -0.17704342 -0.12385093 0.010428946 -0.09308151 -0.20782886 -0.6074042 0.37653843
-0.093527235 -0.20744316 -0.25654438 -0.015780423 -0.7355085 0.22747108 0.2725645 -0.28023794
0.71154386 0.04533821 -0.062171984 0.18212818 0.36156824 0.028101396 0.23991117 0.059720594
0.10564117 0.01256863 0.22187416 0.13697119 -1.0004859 -0.005413907 -0.3189592 0.35441908
-0.112358704 0.35224578 -0.00934081 -0.12704152 0.63796365 -0.10709469 0.22690366 -0.5710648
0.22978388 0.14340624 -0.18751258 -0.07600227 0.08911721 0.28040102 0.20830794 0.050496902
-0.18093169 0.0868593 0.010296338 0.31364384 0.29627845 0.034888677 -0.016285615 -0.024319077
0.010963054 -0.13946211 0.04859886 -0.13010907 0.086962804 -0.18739222 -0.02511695 -0.07933466
0.50699556 -0.027269324 0.102276705 -0.16438654 -0.09205575 -0.057605192 -0.3256541 -0.21434635
0.37117425 -0.38277516 -0.22090785 0.3654103 -0.008187633 0.2784012 -0.3921985 0.18990776
-0.002686681 -0.05146778 0.6521651 -0.17133981 -0.106245294 -0.36191767 -0.2283743 -0.083589286
0.13211212 0.15575294 0.21381165 -0.42510363 0.32966098 -0.1269584 -0.2919768 -0.2067856
-0.42268655 -0.034640823 0.37808606 0.017350681 -0.1253387 -0.06629273 -0.5624472 0.21710294
0.072816476 0.16415127 -0.31819922 0.3666198 0.12671761 0.10910672 0.039851993 -0.259179
-0.118003786 0.0016999317 0.15877296 -0.15679927 0.1402765 -0.490363 1.0823523 0.13596405
0.023469698 0.12874828 -0.44038564 -0.47406536 -0.4441598 -0.39963475 -0.4974793 -0.266039
-0.9348787 0.35346422 -0.07491164 -0.58831984 0.23705217 0.09196294 0.020945236 -0.1968233
-0.04060088 0.06078804 0.59268796 0.15571047 -0.34222704 0.43404177 -0.43096563 0.0657397
-0.2623659 0.047999997 0.12823519 -0.10771091 -0.46062893 0.47031036 0.09598081 0.40535015
0.30770254 0.48326397 -0.4214002 0.14503594 0.32448786 0.3460894 -0.21071036 0.006569938
0.6507403 0.47488838 -0.328201 0.5070996 0.17258275 0.23194696 0.34437546 -0.26029286
-0.24558227 0.023106612 -0.07021727 0.8594388 0.07446985 -0.20783846 0.45354933 -0.04528057
-0.6139811 0.13993639 0.43197095 0.21201792 0.08585847 -0.051967803 -0.024592845 0.44564593
0.1004584 0.07675485 -0.39442843 -0.059970573 0.10597007 0.29175586 0.17733492 0.4021715
0.082983755 -0.13317035 -0.06851182 0.24936134 0.42619842 0.449508 -0.32864493 -0.32341984
-0.24216832 0.48722205 0.05869778 -0.6769583 -0.50623345 0.5597268 0.33621183 0.72153556
0.53319556 -0.5128942 -0.23602183 0.58142436 -0.030764615 -0.11085313 -0.122536585 0.35801312
-0.20565706 -0.19552909 0.37980998 -0.05569686 0.4709061 -0.09620908 0.12373465 -0.3604593
0.36092073 0.08733839 0.66320086 -0.5385205 0.35765702 -0.17472357 0.16569655 -0.092427276
0.5672389 -0.23724262 -0.60991496 0.27901185 -0.18627258 0.058902543 -0.32773894 -0.42144114
-0.63620496 0.7667588 0.117181316 -0.4863331 -0.115548424 0.25072485 0.47929952 0.37556425

bias f4 [50]
00000000: c537 83bd 7606 cebd c4b0 26bb 299a 47bc
00000010: c600 5d3b 104e c33d 593e 30bd a8c3 a33d
00000020: 7cca 023e 0f81 923d a1c5 ad3d 311b 343d
00000030: 4c28 963c 0b57 31bd 5997 09be b1af 12be
00000040: c27a 4ebc 74f7 65bd 7a89 e53c 59e0 98bc
00000050: 5701 e5bc f501 3ebd dbad b43d 021d 3bbd
00000060: 7c8d e3bd b293 a93c 6c12 73bd 7bc4 a9bd
00000070: 647f 2b3d 87a5 2ebd 6084 c8bc e9a9 083e
00000080: 29a1 e73a d4b0 883d f04d 06bc 25bb ebbb
00000090: 25b0 b7bc 0c03 55bc 1abb 0a3d 60f4 37bd
000000a0: b886 e93d 7465 383d f8ff 0b3e ef46 90bd
000000b0: abe5 90bd f7e5 703d 39cf 473d cd02 cabd
000000c0: 8980 debd ae1b 35bc
-0.064071216 -0.10059826 -0.002543495 -0.012182751 0.0033722385 0.095363736 -0.04302821 0.07996303
0.12772554 0.07153522 0.0848496 0.043971244 0.018329762 -0.0432959 -0.13436641 -0.14324833
-0.01260251 -0.056144193 0.028019655 -0.018661665 -0.02795474 -0.046388585 0.08822223 -0.04568196
-0.111109704 0.02070031 -0.05934374 -0.08289429 0.041869536 -0.042638328 -0.024477184 0.13346066
0.0017671931 0.06674352 -0.008197293 -0.00719394 -0.02242286 -0.013001215 0.03386984 -0.04491079
0.11402649 0.04501863 0.13671863 -0.070447795 -0.07075056 0.05881306 0.048781607 -0.098638155
-0.1086436 -0.011053963

weight f4 [30, 50]
00000000: 1d52 99be 6686 61bd ad30 08be a941 85bd
00000010: 7322 c33d 63f3 bbbe adb1 b83d 9079 adbd
00000020: bf12 ea3d 949e 6d3d 16db 1c3e ff08 193e
00000030: eaba 693d fb3d aebd e2a9 a7bd 2b4f 463e
00000040: 78b6 0e3e 4fe3 bdbd 08b6 80be 8fe8 5d3e
00000050: cbe6 2c3e 6c54 5a3e 47f6 7bbe 4a7d 1abe
00000060: 0ab3 0bbe aed4 433e 5c2b 083e 8c33 1a3e
00000070: 78da 253e 9881 0a3e 73ec a83b 236d 9abc
00000080: f4ce c43d 0b3b 913d fb98 fcbd d7d3 2abb
00000090: 995f 70bc 9448 913d 5e18 743b cf48 67be
000000a0: b1f3 573e 31ae d83d a40c 19be 6c53 ae3d
000000b0: 33b5 8bbd 5938 07bd 9719 90bd 2ad8 7c3e
000000c0: 6ac0 d8bd 8773 373c 0fe1 ac3e 5b63 563e
000000d0: 9fc0 11be 3cd8 43be a8e8 1e3e 93ae 8abc
000000e0: d2dd 233e 78b1 873e d3d8 2fbd 3571 c23d
000000f0: 81a0 1abd 38d2 1ebe 52da 813e bb86 073d
00000100: dc85 bd3c bd80 e4bd 9dec 38be af86 c1bb
00000110: eeaa 80bd ddb6 58bd a927 98bb 736d 163d
00000120: 7cb9 033d 3738 1bbe e99f 803c 80d7 e23a
00000130: afc5 2dbe 257e 31be 0546 cd3e 2f38 23be
00000140: b431 c8bc 5d63 70bb e35f b43e e1ec 82bd
00000150: 8f64 403e 8cbf 0a3d ee74 153d 18aa a3be
00000160: 47f9 713e abe1 943d 99a3 8cbe 36a6 42be
00000170: 167d a9bd f968 f53d c787 25be 1c12 f13d
00000180: 3f4b 083e ce91 8e3e 9dc6 133e 0400 1abe
00000190: 84ef 6fbe fa28 bebd d449 ac3c f8db 23be
000001a0: e051 15be 32ef 03be 1ec4 d43d c319 913d
000001b0: 3bc4 643e 38c3 f73d 677a ad3d ffa4 873e
000001c0: 32a7 c7bd 7aed 81be 7ec0 bbbd 164d f63d
000001d0: 7d49 5c3d 5515 30be a653 09be 375f c63d
000001e0: cdad 773d 6675 09be 5523 e2bc 37d3 263e
000001f0: 1560 4fbc c9ff fd3d 4eaf 253e 7b9c 143e
00000200: d51c a93d 34a8 2b3e 48a6 6fbb 40c9 0c3e
00000210: 0e66 7c3d 2126 bd3c 8b3e abbd d03e a93d
00000220: e81f 6dbb 278a f23b a911 c73d 0ec7 21be
00000230: 2702 0ebd b855 173d 060b a6bd a3a2 39be
00000240: b111 2abe 9454 973d 79a5 bebd 7d9a 6f3d
00000250: 6b5d d8bd ce5d 143c 970e 9c3d 1889 a2bd
00000260: b73e bebe bf1c c5bc ff62 91be c3b6 9bbc
00000270: 815b 83be 82e2 63bc 21cb 2bbe c47f 5dbc
00000280: 67e2 1a3d d337 ab3d 00d4 ce3d e96b 753c
00000290: 1b4b 813e e7e6 8abd da52 b6bd 1cc6 b53e
000002a0: ec19 243e 5331 be3d e2cf 40be 7107 bdbd
000002b0: a4e4 6f3e 5bf1 04bd 2b9f 383c 9c1f bc3d
000002c0: ca20 c4bd d8e4 4bbe 7913 893d 9a1b 8fbd
000002d0: 3898 f33d ba4e 23be 7bf9 8e3d 32d9 503d
000002e0: 57f2 703e 86c2 19be 78dc 2bbe 1a6b 0f3e
000002f0: c6f6 f0bb 54f6 403c 5247 ebbb 8e03 35bd
00000300: 678f 9dbb 4ed4 e3bd 92f1 993d 385b 50be
00000310: 0bc3 4f3e 8750 903e 128d b13d aa86 893e
00000320: 9a26 723d b19a 083e 32da 93be 261e 133d
00000330: c650 86be 17a5 023e b566 853e 56a8 0b3e
00000340: ebd4 1bbe 788a 203e ba2d b5bc 9f28 debd
00000350: 2d58 083d 1e31 5b3d bc97 00be fafe 03bd
00000360: 3a55 a0bd 8b45 1a3e 8bb6 80bd 9901 0cbe
00000370: 05b6 c43d 922f c7bd 6f80 6b3e 6568 39bd
00000380: 13d9 993d 6244 ac3b 35a2 a13e 4627 c6be
00000390: c5fa aa3d b31e 18bd d144 323c aa23 b33d
000003a0: ce0b 383e 23f3 e0bd 4de8 733d 6871 50be
000003b0: 345c b9bd 59e6 50bd 19c6 b5bb d48c b63c
000003c0: 7ed1 81bd dc18 073e dbad ec3b 63c2 3dbd
000003d0: 727f 42ba 68fb e03c af3f 0d3e 2639 e73d
000003e0: e319 e53d 669e 0d3e 8224 52be 6a02 9b3c
000003f0: ce35 103e cbd5 48be b02a 46be 3a79 19be
-0.2994546 -0.055059813 -0.13299818 -0.06506664 0.09528055 -0.36709127 0.09018264 -0.08470452
0.11429357 0.05801256 0.1531795 0.14944838 0.05706302 -0.085079156 -0.081866995 0.19366138
0.13936794 -0.09271871 -0.2513888 0.21670745 0.16884916 0.21321267 -0.24605666 -0.15086856
-0.13642517 0.191241 0.1329779 0.15058726 0.1619662 0.13525999 0.00515514 -0.018850869
0.09609786 0.0709134 -0.12333866 -0.0026066208 -0.01467123 0.07093921 0.003724597 -0.22586368
0.21089055 0.105800994 -0.14946228 0.08512005 -0.068216704 -0.03301272 -0.07036131 0.24691835
-0.10583575 0.011196977 0.33765456 0.20936339 -0.14233635 -0.19125456 0.15518439 -0.016928947
0.16002586 0.26502585 -0.04293139 0.09494249 -0.037750725 -0.1550988 0.25361878 0.033087473
0.023135118 -0.111573674 -0.18059011 -0.005905948 -0.06282602 -0.052908767 -0.0046433997 0.036725473
0.032159314 -0.15158163 0.015701251 0.0017306656 -0.16969942 -0.17333277 0.40092483 -0.15939401
-0.024437763 -0.003668032 0.35229406 -0.06392837 0.1878836 0.03387408 0.036488466 -0.3196571
0.23630248 0.07269605 -0.27468565 -0.19008717 -0.082758114 0.119829126 -0.16165076 0.11771032
0.13309954 0.27845615 0.14431234 -0.15039068 -0.23431212 -0.092851594 0.021031298 -0.1600188
-0.14582014 -0.12884215 0.10388969 0.07084992 0.22340481 0.12097782 0.08470612 0.2649307
-0.09748687 -0.25376493 -0.09167574 0.12026422 0.05378102 -0.17195638 -0.13410816 0.096861295
0.060468484 -0.1342369 -0.027604738 0.1629151 -0.012657185 0.12402303 0.16180155 0.14512818
0.082574524 0.16763383 -0.0036567617 0.13748646 0.061620764 0.02308947 -0.083615385 0.08263934
-0.0036182348 0.007401723 0.09720165 -0.1579859 -0.03467002 0.036946982 -0.08107571 -0.18128447
-0.16608311 0.07389179 -0.09308905 0.05849694 -0.10564693 0.009055568 0.0761997 -0.07936305
-0.37157223 -0.024061559 -0.2839584 -0.019008046 -0.2565575 -0.013908984 -0.16776706 -0.013519231
0.03781357 0.08360257 0.100990295 0.014979341 0.25252613 -0.067823224 -0.089025214 0.35502708
0.16025513 0.092867516 -0.18829301 -0.09229935 0.23427063 -0.032456737 0.011268417 0.091857165
-0.095765665 -0.19911516 0.06693167 -0.069876865 0.11894268 -0.15948 0.069811784 0.050988384
0.23529945 -0.15015611 -0.16783321 0.140057 -0.0073536364 0.011777479 -0.007180133 -0.044192843
-0.0048083547 -0.11124478 0.07516779 -0.20347297 0.20289247 0.28186437 0.08669485 0.26860553
0.059118845 0.1334026 -0.28877407 0.035917424 -0.262335 0.1275829 0.26054922 0.13638434
-0.1521794 0.15677822 -0.02211653 -0.108475916 0.033287216 0.05351364 -0.12557882 -0.032225586
-0.07828756 0.15065591 -0.06284817 -0.13672484 0.0960503 -0.0972587 0.22998212 -0.045265574
0.07512107 0.0052571753 0.31569067 -0.38701838 0.08348612 -0.037138652 0.010880665 0.08747037
0.17973253 -0.10983875 0.05954771 -0.20355761 -0.090507895 -0.051000927 -0.0055472967 0.022283949
-0.063387856 0.13193077 0.0072228736 -0.04632796 -0.00074195035 0.02746363 0.13793825 0.11290197
0.11186578 0.13829955 -0.20521739 0.01892205 0.14083025 -0.19612806 -0.19352221 -0.1498765

bias f4 [30]
00000000: d5db dc3d 11f2 d4bd ce1d 063e 6657 a8bd
00000010: ee24 543b e476 0a3e 58ce 5ebe b031 e73d
00000020: a81d 623d 57d0 81be 78d7 3abe 0e1b 18bd
00000030: ca98 173d a25f 843c d172 0f3d d16b 80bc
00000040: 09a0 7abe ab66 753e a0c1 87be ca64 06be
00000050: c75e 083d 8d1f 58be b04f af3e 3cd1 94bd
00000060: 40e0 5d3d 7203 2cbd 13b5 c63e 87ba 31be
00000070: 2d74 d4bc 5e62 893d
0.10784117 -0.10397733 0.13097307 -0.08219795 0.0032370645 0.13521916 -0.21758401 0.11288774
0.055204064 -0.25354263 -0.18246257 -0.037135176 0.037010945 0.016158883 0.035021607 -0.01567641
-0.24475111 0.23964946 -0.26514912 -0.13124385 0.03329351 -0.21105786 0.34240484 -0.07266471
0.05416894 -0.041995473 0.38810024 -0.17356311 -0.025934303 0.06708215

weight f4 [1, 30]
00000000: 4027 e13a 3b03 60bc fce3 62bc 584c 5d3a
00000010: 2f0a 8bbc a3db b6bb d547 bd3c c519 273a
00000020: 7b19 793c 857e be3c 9a2f 48bc 702e b9bc
00000030: 8b32 aa3b a071 a8bb 65ef 2ebc e941 81bc
00000040: aad6 0cbb fac5 29bd d0a7 693c f5b9 9fbb
00000050: 0123 0cbc 8dcc 133c 629a 7ebc b6c9 2fbb
00000060: 9987 bc3b 33ae 89bc 2c6f dabb a648 063b
00000070: 1b6f a0bb 530b a3ba
0.0017177835 -0.013672645 -0.013848301 0.0008441857 -0.01697263 -0.005580382 0.023105541 0.00063743844
0.015203829 0.023253689 -0.01221838 -0.022605151 0.0051940135 -0.0051404983 -0.010677193 -0.015778499
-0.0021490254 -0.04144857 0.014261201 -0.0048744627 -0.008553267 0.009020937 -0.015539737 -0.002682311
0.005753469 -0.016806697 -0.0066660848 0.002049008 -0.0048960573 -0.0012439288

hidden_cell f4 [1, 20, 50]
00000000: a998 5525 b8df dab9 b2ca ba3c 0000 0080
00000010: 8bc5 d11a 6aa2 4aa4 f8ad e7bb 7eb5 640e
00000020: 0f83 3d0e 0000 0080 a7e8 1294 3ecf 0d80
00000030: 77c8 3a99 e82b 0080 3337 2ea2 9bfc ed9a
00000040: 3a7d 3329 2cdc cc1e 0000 0000 8814 b29b
00000050: 37c8 bb8d 8832 758f 0000 0080 0000 0080
00000060: b18b 4322 a50e 1a22 d6f7 42bf 3895 de20
00000070: 3efa 7fbf 6701 1390 32f8 7b0f 0000 0080
00000080: bade 4d1d 53b6 a4a2 8282 48a1 ba00 0080
00000090: 0000 0080 ae95 8ebc 0d59 7d3f 0000 0000
000000a0: d489 163f 5bee 5999 3790 0d3f 0000 0000
000000b0: da90 7fbf 26ea 0e85 8106 be1c fea9 62b9
000000c0: cf0d 50a0 ffb9 ba08 beb0 3e22 5592 a8ba
000000d0: e676 5d3c 0000 0080 1220 7a17 202b 97a0
000000e0: 7c7d e7ba d765 6108 d0fb fe08 0000 0080
000000f0: 220e bc92 0300 0080 feab 3e94 0000 0080
00000100: 295f 169d 93c1 d895 49ef 6726 90dc a51a
00000110: 0000 0000 f065 5097 7216 8791 4442 ef88
00000120: 0000 0080 0000 0080 bcd6 011e d0a6 821d
00000130: d6f7 42bf 8d8d 0b1d 1cff 7fbf 483a 2389
00000140: 0556 6208 0000 0080 59da 391f d346 ce9f
00000150: d6aa 6a9c 0000 0080 0000 0080 e16d 1bbc
00000160: 8d32 613f 0000 0000 58a6 2d3f 985a bb93
00000170: ad3a 7f3f 0000 0000 28af 7fbf e87e 0e80
00000180: 3e49 7319 c08f 93b8 4305 b39c 2de7 a700
00000190: 03ae 6131 3eb3 e3bb 5069 073b 85fd 6c8d
000001a0: 3eb3 8c30 5874 79aa 7a47 2db2 a546 031f
000001b0: cc60 3d23 97e1 6589 1501 7ba2 ea14 0a92
000001c0: b9f7 15ab 547c 7592 c9c9 73a8 fde6 c1aa
000001d0: 4987 812e 5ba8 a12a 4b36 0100 81dc 9da8
000001e0: 9693 b596 32d3 5da2 a05d 4781 0423 9e83
000001f0: ca15 ed2d 2d4f 6630 d6f7 42bf ca7d 3f2f
00000200: 5686 7cbf 0224 ae9f ac97 901d f0c1 ca92
00000210: 1648 e920 50ec 11b4 4c45 beab 2f5b 8f9f
00000220: 4ec0 7180 d3f1 c53e 138c 0b39 0400 0000
00000230: e361 d53a 8662 56a9 3b96 7c3f 0000 0000
00000240: 173d 24bc 3413 0f9a d120 292d b8a7 64bf
00000250: e518 15ac ca88 2196 bd54 1939 f237 2dbb
00000260: d3cd b33c 61d7 ec9f 3f2d c736 6803 5cac
00000270: c126 0aae 7a47 8e26 a964 a22a f6ec 77a3
00000280: 4643 8ca7 3462 e99c 6f3e 0db2 418f 779d
00000290: 16c4 e0af aec3 fcaf 6b0d d62e b1ac 632e
000002a0: 54b1 970b e09e f3ae 43f2 0816 44cb 41ac
000002b0: d5d6 6399 2cdf 249a 9ad3 2a37 8b24 0d36
000002c0: d6f7 42bf 58c5 d034 cc19 6abf 2da8 eea5
000002d0: bdec 9328 dc43 06a5 76fa 02a2 4e9a 9bbb
000002e0: c8a7 b3b1 a663 21af 5e3b 659b 5731 a93c
000002f0: 61e5 ab34 1bab 4e03 9905 1838 70af 64b5
00000300: 8aac fe3e 0000 0000 ddc3 bdba 14cf b3a1
00000310: 3c90 8b33 85b6 7fbf 43d6 46b0 c8d1 e025
00000320: aab1 3d3f dc6e 0dbd 6dc5 a93c 4ccd 5ea6
00000330: d67a 5836 441d 6ead 85f1 bab5 10de ce25
00000340: 0899 2b2b 48e3 ff9b 5ee1 7eab 9754 64a1
00000350: 7762 acb0 3c8d 549d bc0e 41b6 1bea 06ae
00000360: 2450 5a36 54f4 b22c 7b00 c80f e9fc ebae
00000370: 26ca 1a22 d86b a7ab 4297 1390 be0c 46a2
00000380: 4f7e c333 0923 1134 73e5 42bf 67ee cc35
00000390: 24e9 babe 32df 1ca7 baf8 572c dcb4 35a0
000003a0: 68e6 80ab 5dce a2b4 44b1 20ab eddc 5a9c
000003b0: ad3f 66a1 c51a bb3b c004 e73d 502c 1e0b
000003c0: 608a e53d 02c8 86af 27a8 583f 0000 0000
000003d0: d2e0 7fbf 722c c0a3 8956 c32a f132 dcbe
000003e0: 91b4 1cae 03ee 6136 b0f0 3234 c3ec 26bb
000003f0: 6a63 9e3c b935 5f90 f3fa 1433 64c9 e8aa
1.8526528e-16 -0.00041746884 0.02280173 -0.0 8.675952e-23 -4.3939338e-17 -0.0070702992 2.8190555e-30
2.3359151e-30 -0.0 -7.416999e-27 -1.268206e-39 -9.656458e-24 -1.575e-41 -2.361062e-18 -9.842901e-23
3.98546e-14 2.1690401e-20 0.0 -2.9460898e-22 -1.1572965e-30 -1.20891646e-29 -0.0 -0.0
2.650138e-18 2.0878645e-18 -0.7615942 3.7707008e-19 -0.99991214 -2.899172e-29 1.2423056e-29 -0.0
2.7246671e-21 -4.4645332e-18 -6.793536e-19 -2.6e-43 -0.0 -0.017405357 0.98964006 0.0
0.5880406 -1.12667726e-23 0.5529818 0.0 -0.998304 -6.719814e-36 1.2574827e-21 -0.00021616367
-1.7622854e-19 1.1238195e-33 2.5843368e-18 -0.0012860993 0.013517117 -0.0 8.0819835e-25 -2.5608933e-19
-0.0017661299 6.7828187e-34 1.534627e-33 -0.0 -1.1867952e-27 -4e-45 -9.626468e-27 -0.0
-1.9901531e-21 -8.754711e-26 8.0468516e-16 6.859874e-23 0.0 -6.733709e-25 -2.1313077e-28 -1.4399868e-33
-0.0 -0.0 6.873609e-21 3.4583194e-21 -0.7615942 1.8469677e-21 -0.9999864 -1.9647815e-33
6.8110517e-34 -0.0 3.9355887e-20 -8.736156e-20 -7.7644906e-22 -0.0 -0.0 -0.009486646
0.8796776 0.0 0.67831945 -4.729477e-27 0.9969891 0.0 -0.9987664 -1.331222e-39
1.2577597e-23 -7.036282e-05 -1.1846586e-21 1.5419458e-38 3.2840723e-09 -0.0069488576 0.0020662136 -7.302828e-31
1.0237284e-09 -2.2156007e-13 -1.0086177e-08 2.7798765e-20 1.0266208e-17 -2.7670944e-33 -3.4017416e-18 -4.35709e-28
-5.327922e-13 -7.7461615e-28 -1.3532965e-14 -3.4443967e-13 5.890272e-11 2.8716165e-13 1.11312e-40 -1.752613e-14
-2.9335267e-25 -3.006289e-18 -3.66177e-38 -9.294445e-37 2.6953457e-11 8.378603e-10 -0.7615942 1.7416038e-10
-0.9864248 -7.3751436e-20 3.8273308e-21 -1.27958015e-27 3.9519438e-19 -1.3590147e-07 -1.3519546e-12 -6.0713706e-20
-1.0446397e-38 0.3866106 0.00013308255 6e-45 0.0016279783 -4.7603e-14 0.98666734 0.0
-0.010024331 -2.958722e-23 9.6138245e-12 -0.8931842 -2.1187993e-12 -1.304864e-25 0.00014622785 -0.002643105
0.02194873 -1.003062e-19 5.9359295e-06 -3.1265771e-12 -3.1411988e-11 9.872603e-16 2.8846828e-13 -1.3440075e-17
-3.8930744e-15 -1.5444032e-21 -8.221476e-09 -3.2764238e-21 -4.088469e-10 -4.5977572e-10 9.733977e-11 5.1767205e-11
5.84299e-32 -1.10785825e-10 1.1062437e-25 -2.7539785e-12 -1.177901e-23 -3.4094682e-23 1.0182057e-05 2.1031908e-06
-0.7615942 3.8886606e-07 -0.9144561 -4.140038e-16 1.6422947e-14 -1.1645639e-16 -1.7750878e-18 -0.004748619
-5.22866e-09 -1.4678267e-10 -1.8961619e-22 0.02065341 3.2018127e-07 6.073438e-37 3.6244837e-05 -8.5191914e-07
0.49741012 0.0 -0.0014477927 -1.2184325e-18 6.498928e-08 -0.9988788 -7.2336465e-10 3.899996e-16
0.7409922 -0.034529552 0.020724023 -7.729995e-16 3.2258008e-06 -1.3535232e-11 -1.3928371e-06 3.588578e-16
6.096378e-13 -4.2333088e-22 -9.0551687e-13 -7.736136e-19 -1.2542632e-09 -2.8130983e-21 -2.8767818e-06 -3.0676e-11
3.253118e-06 5.08619e-12 1.9721708e-29 -1.07314886e-10 2.0977908e-18 -1.1895996e-12 -2.9107163e-29 -2.684075e-18
9.1033705e-08 1.3516923e-07 -0.7613136 1.5268569e-06 -0.36505997 -2.1770343e-15 3.0691409e-12 -1.5391138e-19
-9.158898e-13 -3.0325e-07 -5.7089424e-13 -7.241569e-22 -7.8011305e-19 0.0057099783 0.11280203 3.046303e-32
0.112080336 -2.4516572e-10 0.8463158 0.0 -0.99952424 -2.0835505e-17 3.4699004e-13 -0.43007615
-3.563067e-11 3.3666154e-06 1.6665103e-07 -0.002547071 0.019334514 -4.4020382e-29 3.4687172e-08 -4.1351221e-13
