saved_model/model_agg.pt (torch_old, 68504 bytes, 7 tensors)

weight_ih_l0 f4 [200, 8]
00000000: f6c6 fd3d 200b fb3e 8549 843e 423c 9c3e
00000010: ff7c 0ebe 9711 a73f 06b7 f13c 418a b53d
00000020: 1913 2eba 8161 92be 75bd 26be 762a 91be
00000030: 866d f2bc c835 16be 1627 be3d 8ef4 19be
00000040: fe43 83bf ccc2 8f3d ef77 9ebe 0115 b53d
00000050: e53d 6bbf ae46 e2bd f818 8fbe 7619 073f
00000060: f743 0fbf 0af0 a1be 8529 babe e8d1 cbbe
00000070: e5c4 40bf 2670 c2be 5d25 9ebe f34d 5bbe
00000080: bbae cf3e 2ad6 41be a64c 8f3d f16c 14be
00000090: 34ba 0bbf 4207 e03f 7f7d 3b3f 71b5 94be
000000a0: 294f 78be d571 75be f10b 6fbc 64ca fbbb
000000b0: 7fd3 0e3d c7a5 e0be ec74 94bd 5b0e 273e
000000c0: a991 db3e 6fde 973e d254 073e 40fa 1d3e
000000d0: 525f bcbe 7a58 223f adec 9a3e 0f6f 763e
000000e0: 7981 dc3d 669d c8be c8e4 f7bd 29ab 97be
000000f0: 9231 db3c 1dd6 ddbf 7ba6 cdbf 99c0 4f40
00000100: a765 b33f 92af d23d 7a0e ed3e 6046 963e
00000110: cf38 823e 15cc 7dbe 9888 003f fd89 733f
00000120: 9ef0 b6bd a5b6 29be fb02 a6be 9761 9ebe
00000130: adeb f63d d801 2abf 8991 d5bc c795 fe3c
00000140: 363a 43bf 7f65 34bf 0d28 4bbf e3aa 64bf
00000150: a63a c9bf c31e dfbe df6e b93d 91f4 edbd
00000160: d75f 19bf d5ab 02bf 8012 b4be 0a12 8cbe
00000170: 4098 30bf 59fe 99be e7b1 e93d 9480 f7bd
00000180: 20e9 99bd c9bf 473e 7373 43bd 962d 043e
00000190: 4de1 c6bf 6323 9cbd e44e c03d 4b7c dbbd
000001a0: 73b1 ad3c 9535 33be 824e 71bd 8950 5dbe
000001b0: 28db 0bbf 653a 8ebe 333d 24be 3a73 99bd
000001c0: 46fb bcbe 6ef1 c7bd 6e7f 92be b5dd 4ebe
000001d0: 6cac a93e e53d 93bf 4e33 083f 813e cdbe
000001e0: e945 0840 13fb f1be 9b22 e13e 8ae1 bfbe
000001f0: 3500 8c3f c245 2cc0 4795 65be c6af 743f
00000200: 9232 22be a334 abbd 4c8e f7bd 6888 7cbe
00000210: 4ca9 963f b972 123f ad5e d0be dab8 96bd
00000220: e1e8 a4be ec9a 7dbe 7b74 72be cd00 b3be
00000230: 2e08 f7be 0a15 7bbe 18c3 1b3e 0037 87be
00000240: 9232 f1be cc59 e7be ffd3 c8be d729 f9be
00000250: 9741 86bf bd28 993e 5db8 25bd a907 82bd
00000260: 4dad 3abf 0eb7 17be 92a7 c8be ff4c 2dbe
00000270: 5a12 d43e defe 68be 91e1 93be a41f 70be
00000280: 6c1a 98bf 348d 8bbf e194 92bf 797a a6bf
00000290: 2ae5 1840 b9c7 fbbd ad0f 11be 6f16 b8be
000002a0: f06d 60be 5e7d 37be cf2a 80be 3e74 a9be
000002b0: 923c 90bf d236 8fbe 14ac 03be db3e 5dbe
000002c0: d104 9abf 19f8 2a3d d118 d6be e49e 883e
000002d0: eb8d b43f 1b46 8f3d 6e8d 4abf 0100 bd3f
000002e0: 35a0 72be a67f 10bf ee85 b3be 8316 15bf
000002f0: e1f0 d0bf 34f5 98bf 9bef 5ebe 031f e33e
00000300: 9f42 33bf 3298 44be d869 f7be 6d60 4abe
00000310: f7eb e2be 2aab 03bf 64da 5e3f f580 afbe
00000320: 694d a0bc 61eb edbc 120b 77be e039 44be
00000330: 0290 14bf c3f8 9abe 4fc2 54be 59d6 87bc
00000340: 19f4 a6bf 79ff b73e af4f d4be 7385 bf3e
00000350: 5167 4b3f e5d8 6dbf 01c0 3bbd f3ea e43e
00000360: 51d9 08bf 8e1d 2cbf ac6e 23bf bd7e 01bf
00000370: 6f5c 9bbc 4c05 05c0 21c8 97bd aeba 17be
00000380: 7a6c 93be 0c05 bfbe c47d d1be 2c55 adbe
00000390: b447 b13e 206f 04bf f340 a9be d99a 7dbe
000003a0: da01 083e 4ea7 653e b789 62bc a037 ad3c
000003b0: 53dc 0c3f 42e4 ac3d 7fdd 7fbd b145 67be
000003c0: dac4 283f 4af3 1f3e 9abb e93e aa22 ae3e
000003d0: c7a4 a43d 635a 48bf 7f51 0e3f 4f75 ff3d
000003e0: e882 44bf 713e 47be 01f8 c1be 86b2 cdbc
000003f0: 0b01 4c3f a61c 21bf b94a d9be 3db6 083f
0.123914644 0.49031925 0.2583734 0.30514723 -0.1391487 1.3052243 0.029506218 0.088642605
-0.0006640419 -0.28590015 -0.1628321 -0.28352708 -0.02959324 -0.14668953 0.09284799 -0.15034696
-1.0255125 0.070195764 -0.30950877 0.08841897 -0.9189132 -0.11048637 -0.27948737 0.52773225
-0.5596308 -0.31628448 -0.36359802 -0.39808583 -0.7530044 -0.37976187 -0.3088788 -0.21416454
0.40562996 -0.18929353 0.069970414 -0.14494683 -0.54581 1.7502215 0.73238367 -0.2904468
-0.24248947 -0.23969205 -0.014590249 -0.007684039 0.034869667 -0.43876478 -0.072488636 0.1631407
0.42884567 0.2966189 0.1321595 0.15427494 -0.36791474 0.63416255 0.30258694 0.24065803
0.107668824 -0.39182585 -0.121041834 -0.29622772 0.026757035 -1.7330967 -1.6066431 3.2461302
1.4015397 0.10287394 0.46300107 0.29350567 0.25433967 -0.24784882 0.50208426 0.9513243
-0.08932613 -0.1657358 -0.3242415 -0.3093383 0.1205667 -0.66409063 -0.026070373 0.031077279
-0.762607 -0.7046737 -0.7935799 -0.8932325 -1.5721023 -0.43578157 0.0905435 -0.11618913
-0.59911865 -0.51043445 -0.35170364 -0.27357513 -0.68982315 -0.30076864 0.11410885 -0.12085071
-0.07515168 0.19506754 -0.047717523 0.12908015 -1.5537506 -0.07623937 0.09390047 -0.107170664
0.021202778 -0.17500909 -0.05891276 -0.21612753 -0.5463128 -0.27778926 -0.1603897 -0.07492681
-0.36910456 -0.09762846 -0.28612846 -0.20201762 0.3313936 -1.1503264 0.53203285 -0.4008675
2.129267 -0.47261867 0.43971714 -0.3747676 1.0937563 -2.6917577 -0.22420226 0.9558071
-0.15839604 -0.08359649 -0.12087688 -0.2466141 1.1770415 0.572063 -0.40697232 -0.073594764
-0.32208923 -0.2476613 -0.23677246 -0.34961548 -0.48248428 -0.24519745 0.15211141 -0.2640915
-0.47108895 -0.45185697 -0.3922424 -0.48664734 -1.0488766 0.29913893 -0.040459026 -0.06349117
-0.72920686 -0.14815924 -0.39190346 -0.16923903 0.4142025 -0.22753474 -0.2888303 -0.2344957
-1.1883063 -1.0902467 -1.1451684 -1.3006126 2.388987 -0.122939534 -0.14166136 -0.35954615
-0.21916938 -0.17918918 -0.2503266 -0.33096498 -1.1268485 -0.27971512 -0.12858611 -0.21606009
-1.203272 0.04174051 -0.41815808 0.26683724 1.410581 0.069957934 -0.79122055 1.4765626
-0.23693927 -0.56444776 -0.35063118 -0.58237475 -1.632351 -1.194983 -0.2177109 0.44359598
-0.7002353 -0.19198683 -0.4832294 -0.19763346 -0.44320652 -0.5143305 0.8705199 -0.34278074
-0.019568162 -0.029042901 -0.24125317 -0.19162703 -0.5803224 -0.30267915 -0.20777248 -0.016581701
-1.3043243 0.35937098 -0.41467044 0.374065 0.79454523 -0.9290908 -0.045837406 0.44710502
-0.534566 -0.67232597 -0.63840747 -0.5058401 -0.018964974 -2.0784483 -0.074112184 -0.14817306
-0.287937 -0.37308538 -0.40916264 -0.33854043 0.34625018 -0.51732063 -0.33057365 -0.24766101
0.13281956 0.22427103 -0.013826779 0.021144688 0.5502369 0.08441974 -0.062467095 -0.22585179
0.6592537 0.15620151 0.4565094 0.34010822 0.08039241 -0.7826292 0.55593103 0.12473547
-0.7676225 -0.19457413 -0.37884524 -0.02510954 0.7968909 -0.6293434 -0.4243982 0.53403074

weight_hh_l0 f4 [200, 50]
00000000: 4516 2dbf 33c8 5ebe e21a bf3d 7309 d4be
00000010: ac9a 433e 758a c0bb 0a6d 8f3e aeb0 b7bd
00000020: 0717 3d3f 29dd 8b3f 91b8 1240 2d29 373e
00000030: 63c8 8d3e d6f9 143d d392 aa3d 5144 d3bf
00000040: 66e8 1e3f b210 f8bd 3380 9dbf ed08 18bd
00000050: 72a4 203e 3758 0abf aa20 80bd fab8 9fbf
00000060: d836 0e3d 430a b6be 6b1f 8fbf a569 0bbf
00000070: 8a50 44bf b252 1abf f9b2 b43e b0de a1bd
00000080: 259e 28bf 8189 013e 99d4 cc3e 16c7 1ebf
00000090: 7175 9ebe 6e62 c73d 3257 2a3f c8d3 f0bc
000000a0: 1326 b73d bd69 603d d4cf cabe 9834 5ebe
000000b0: e694 9c3f 19a3 f2be d7f2 d1be 55b6 403f
000000c0: 244b 86bf 8288 00be d5e3 0cbe 1e97 273e
000000d0: 2ade 50be 42ae 053b 56f5 0f3e 45df 173e
000000e0: 9dab e9be 1956 d9bd be23 b1be 95f7 593e
000000f0: 0fe2 323f 918a 42bd e103 6abd 6d32 90bc
00000100: 8d68 ac3c 0bec 34be 2214 263d 082e d9bd
00000110: eade 0bbe 5bdc 8f3e f21c f2bd 2b8e cfbe
00000120: 9781 513e 5b6a b4be 0879 2c3e ea02 96bd
00000130: 9ebe 4dbd 53b4 8b3e e2c0 ab3e 3615 023e
00000140: 7dd1 4c3e fa53 aebe 561c 5cbe 1733 22bd
00000150: 5eff 03be 1503 063e 7c4e fbbe 7697 a23b
00000160: a972 a53d 6fda 793e 938c d83c 7a3b 42be
00000170: d22e 04be 6afc 87bd 60cf 2c3e e9c9 b43e
00000180: 99c6 1b3d 87ef 0e3f d044 f9bd f2e3 0c3e
00000190: 4d24 10be ad4b b5be 8108 873f 1681 26bf
000001a0: f872 9fbe df3d 29bc 0a79 743e d892 1cbd
000001b0: 4f7c f0be 9d07 0b3f 1ff2 cb3e 8bc8 d13d
000001c0: eeca d53b 0c3f d93e 57e8 643d 4626 0f40
000001d0: b3c5 f9be 0a51 a7be e2f3 44bf 33d8 0a3e
000001e0: 54d1 043e 02c5 babe 54d4 1a3d fb22 98bc
000001f0: 3d63 8d3e 0d46 133d 0ced 4e40 c2da a03d
00000200: 6f4d 253f ab7a d03f 352c 0cbf 8c13 843f
00000210: 897e afbe 590c c5bd 70a7 ff3c 73c1 803e
00000220: 8205 aa3c b1b9 84bd 5968 d73d 6434 303f
00000230: 0da8 c4bd 5351 0bbf de69 973f fba4 8cbe
00000240: 90a2 b73e 0fec b83f 78a4 14bf fa2e 993f
00000250: 2c4a a1be fab2 c13e 25c3 8ebe 17f4 f5bd
00000260: f727 7ebc b0db 1fbf 99f1 6f3e 67d3 8b3e
00000270: 7205 38bf 8bd5 07be ef8e 57be 6ffd 143f
00000280: 6b3f 703f 172f 833e dfb2 fb3d 6401 28bd
00000290: 77d5 5b3d 356b 9e3d 8d1f df3e 77d2 f73a
000002a0: 7403 3fbf 0d60 5cbd 8c1b e5be 9dbd 00bf
000002b0: 4f82 643e 70e2 a6bf 2b80 83ba 333e 19be
000002c0: 3959 41bd 2e4c e03b 3c58 0f3f b9c7 773e
000002d0: 8d21 913e 99da 163e 4b4a 09bf 2615 7ebd
000002e0: c2ef 93be b778 52be 6ff7 a8be 2c7b a63d
000002f0: d816 ec3e 5721 743d 7144 5cbd 3421 bebd
00000300: 9670 813d 89fa 8c3e ea7f 483f fef7 0a3f
00000310: 39a9 05bf 21af 463f 0c67 d0bd 8794 ecbc
00000320: 9850 61bf 7581 3cbf fb16 10bf 2bee b8be
00000330: 5ab3 983f d715 46bd 61e3 433f edd1 893d
00000340: 7809 19bd 7147 e4bd ac63 193f 894d 10be
00000350: cd97 e5bd 87d2 4dbd 0c6a a43e 3a40 013e
00000360: c842 bfbe 7278 97bf 067e 6abf 6de9 633f
00000370: d532 05be 0366 3e3e 35ff 653e 4905 e13d
00000380: c3a8 35bd 8ed4 813e 0cba acbe 7fef 30be
00000390: 6cd4 3f3f a734 2a3f 8d2d 563f aabe 5abe
000003a0: ec94 44bf e7f3 93be e269 fabc a8ad 53be
000003b0: 58bb 0cbe 4d44 bcbb dbae 91be 0ac4 bbbe
000003c0: 3908 0f3e b450 4a3e 05e2 003f 4405 4d3f
000003d0: a203 a03e c5cc 51be e274 39bf 7ec7 933e
000003e0: 294f 033f 9afe 053e 866e bcbd 0adc e43b
000003f0: 5189 f63c b169 85bf 3fba 223e 2052 28bd
-0.67612106 -0.21756057 0.09331299 -0.4141346 0.19101971 -0.0058758804 0.28012878 -0.08969246
0.7386326 1.0926868 2.292515 0.17886801 0.27691945 0.036371075 0.08328786 -1.6505224
0.6207336 -0.121125594 -1.2304748 -0.037117887 0.15687731 -0.54040855 -0.0625623 -1.2478325
0.03472027 -0.35554704 -1.1181463 -0.54458076 -0.7668539 -0.60282433 0.35292795 -0.079038024
-0.6586631 0.1265011 0.4000595 -0.6202253 -0.30948976 0.09735571 0.665393 -0.02939786
0.08942809 0.05478834 -0.39611685 -0.2169975 1.223294 -0.4739006 -0.41005585 0.75278217
-1.0491681 -0.12552074 -0.13758786 0.1636624 -0.20397249 0.0020398055 0.14058432 0.14831264
-0.45638743 -0.10612125 -0.34597582 0.21285851 0.6987619 -0.04749543 -0.057132605 -0.01760217
0.021045947 -0.17668168 0.040546544 -0.10604483 -0.13659254 0.28097805 -0.11821927 -0.40538153
0.20459591 -0.35237393 0.16843045 -0.073247746 -0.050230615 0.27286014 0.33545595 0.12703404
0.20001788 -0.34048444 -0.21495184 -0.039599504 -0.12890384 0.13087113 -0.49083316 0.004961903
0.0807851 0.24399732 0.026434219 -0.18968001 -0.12908486 -0.06639941 0.16875982 0.35310295
0.038031194 0.5583424 -0.12171328 0.13758829 -0.14076348 -0.354093 1.054947 -0.6504072
-0.31142402 -0.010329693 0.23874298 -0.03822598 -0.4696984 0.5430849 0.3983316 0.10243329
0.0065244352 0.42430913 0.05588564 2.236711 -0.48783645 -0.32679015 -0.76934636 0.13559036
0.12970477 -0.3647843 0.037800148 -0.018571367 0.27614775 0.035955478 3.2332182 0.07854225
0.6457128 1.6287435 -0.54754955 1.0318465 -0.34276226 -0.09621496 0.03120777 0.2514759
0.02075458 -0.0648073 0.105179496 0.6882994 -0.09602366 -0.54420966 1.1829183 -0.2746962
0.35866213 1.4447039 -0.5806346 1.1967461 -0.315019 0.3783186 -0.27883258 -0.12009447
-0.015512458 -0.6244459 0.23432006 0.27309725 -0.7188331 -0.13265054 -0.21050619 0.5819921
0.9384677 0.25621864 0.12289976 -0.04101695 0.053670373 0.07735292 0.4357876 0.0018907328
-0.74614644 -0.05380254 -0.4474758 -0.50289327 0.22315334 -1.3037853 -0.0010032704 -0.14965133
-0.04720423 0.006845019 0.5599401 0.24197282 0.2834591 0.14731826 -0.5362899 -0.062031887
-0.28893858 -0.20553862 -0.33001277 0.08128962 0.46111178 0.059602108 -0.05377621 -0.09283677
0.06320302 0.27534893 0.7832018 0.54284656 -0.5221134 0.77610976 -0.10175905 -0.028879417
-0.880136 -0.73635036 -0.56285065 -0.36119208 1.1929734 -0.04836067 0.7651883 0.06729493
-0.037362546 -0.11146439 0.5991771 -0.14092077 -0.11210594 -0.050249603 0.32112157 0.12622157
-0.37355638 -1.1833632 -0.91598547 0.89028054 -0.13007672 0.18593602 0.22460635 0.10987336
-0.044350397 0.2535748 -0.33735693 -0.1727886 0.74933505 0.6648659 0.83663255 -0.21361795
-0.76789737 -0.2889702 -0.030568067 -0.20671713 -0.13743341 -0.005745447 -0.28453717 -0.36673003
0.1396798 0.19757348 0.5034488 0.8008616 0.31252772 -0.2048827 -0.72443974 0.28863138
0.51292664 0.13085404 -0.09200768 0.0069842385 0.030094774 -1.042288 0.1589136 -0.041093946

bias_ih_l0 f4 [200]
00000000: c1c4 aabe 7ef4 f1be 6b19 85bf b16e 46bf
00000010: 709f a3be 6ee5 49bf 906d 883e 6318 59bf
00000020: d322 83bf 6bc7 04bf f952 343e 1077 84bf
00000030: 5c85 27bf 7545 62bf 4d1a 4fbf c0b7 66bf
00000040: 3b2a 383f 3f64 5cbf 4eaf 17bf 42c9 51be
00000050: 2430 87bf b54a b4bc 47a9 abbf e299 6e3e
00000060: 4fc6 59bf 8d35 2fbf 045e b6bf b546 eabe
00000070: 46a8 cebe 5167 4abe 0625 b6bd ae17 61bf
00000080: 1372 a6be 1e0e 82bf b48c 55bf 06e3 97bf
00000090: 6740 2bbe 0fd5 8ebf addf 38bf 17c3 0abf
000000a0: a796 71bf 025b 89bf 6237 c9be 8194 04bf
000000b0: c0de 283f 0b65 a33d 99d5 163f d5e9 463f
000000c0: 7032 733b 1254 a5bf 16d4 fbbe b1e4 8dbe
000000d0: 1623 38bf 9fd9 56bf 5ac8 03bf a1f1 27bf
000000e0: 79f7 243f d83c 22bf 40e5 dabf 53fa 33bf
000000f0: 4417 66bf df5e 11bf cb33 16bf 1d89 f9be
00000100: bfa6 94be 411e 14bf 80a6 b7bf 36b0 e6be
00000110: b7a2 edbe ca58 533e 2b5a 67be 4890 02bf
00000120: e536 05be e92a 60bf 4e43 14bf 7820 07bf
00000130: 5122 0c3f 91b6 36bf eda9 81bf 38ea 683d
00000140: 10b6 29bf 6f6e 54bf 7fce 88bf 99ca d6be
00000150: 07a7 29bf 23f3 33bf 0587 70be 6f4a 06bf
00000160: 316f 4bbf c9e8 adbd d250 13bf c9cc 4dbf
00000170: a6c6 44be dd19 a13f 7007 47bf df6c 02bf
00000180: 8311 48bf c41c 84bf 9afb 2d3f f6a9 37bf
00000190: 4ab2 0fbe d908 cb3d 17aa 25be 6d58 f63e
000001a0: 900d 21bf 7bdd 13bd 13a2 bb3e 3388 783e
000001b0: 75ed 60bc 3ccc babe e63c a2bf 1782 efbe
000001c0: 0452 bcbe 25bb 93bd 59c6 aa3d 6d54 bc3e
000001d0: 9d59 62bf 072e 573e 6a4d 233f d565 e6bc
000001e0: bedc cd3e 58a1 293f 7bd8 163f cbc8 873f
000001f0: 6130 17bf b424 05bc a6d0 cbbe 75a3 23bf
00000200: d04b 88bd 41df 1f3e d3fb 4ebf c9cc 65be
00000210: f262 253e 0cf2 493e 67e6 d6be ef5c 953e
00000220: 447e ce3e 426d ecbe 19d9 adbe aac6 43be
00000230: 9bf7 bebe 91ea 8bbe 9c11 50be d582 2bbe
00000240: a5e1 84bf e839 11bf 0855 6fbe 9f13 6bbf
00000250: 4a8b 013f 90b2 c23d 068c ddbd 13e7 7abf
00000260: f288 70bf 3f1a 10bf 497c 3cbf 30a3 2bbf
00000270: 9695 eebe 7a51 6fbe 5350 9abe 52c7 aabe
00000280: 8748 ebbd 8e0b 29bf fc30 2dbf 156e 68bf
00000290: 7c21 9ebe 6120 223f d9ef fc3d 7c67 87bf
000002a0: 5309 1abf ebb1 13bf 0c32 633e b674 f23c
000002b0: 3a34 16bf d98e cebd 17fc b0be 64d3 96bf
000002c0: 4814 64be 588c bfb9 0fb6 72bf 4000 39bf
000002d0: 0019 a7bf 27a0 48bf a9bf 7d3f 51a7 0bbf
000002e0: 07cf 06bf fe12 68be 7263 64bf db83 2ebe
000002f0: c3fd 1abf 4357 b0bf d1a1 16bf a44e 94bd
00000300: 7ae2 95be 0090 ecbe 2394 a03f 3d57 04be
00000310: e80d acbf 8885 83be f2d5 7ebf 18b5 5dbf
-0.33353236 -0.47256845 -1.0398382 -0.7751265 -0.3195758 -0.78865707 0.2664609 -0.84802836
-1.0245003 -0.5186679 0.17609777 -1.0348835 -0.65437865 -0.88387233 -0.80899507 -0.9012413
0.7193944 -0.86090463 -0.5925187 -0.2048693 -1.0561566 -0.02200828 -1.3411034 0.23300889
-0.8506822 -0.68441087 -1.4247441 -0.4575707 -0.40362757 -0.19765975 -0.088937804 -0.8792676
-0.32508907 -1.0160558 -0.8341782 -1.1866157 -0.16723786 -1.115877 -0.722163 -0.54203933
-0.943705 -1.0730898 -0.39300066 -0.517891 0.6596489 0.07978257 0.58919674 0.7770055
0.003710892 -1.2916281 -0.49185246 -0.2771354 -0.71928537 -0.83925813 -0.5147759 -0.6560307
0.64440113 -0.6337409 -1.7101212 -0.7030384 -0.8987925 -0.56785387 -0.5867278 -0.48737422
-0.29033467 -0.57858664 -1.4347687 -0.45056313 -0.46413204 0.20639339 -0.2259299 -0.51001406
-0.13009222 -0.87565476 -0.579152 -0.5278392 0.5473986 -0.71372324 -1.0129982 0.056863993
-0.6629343 -0.8298101 -1.0688018 -0.41951445 -0.6627049 -0.7029287 -0.23489006 -0.52457327
-0.7946654 -0.08491666 -0.57545197 -0.803906 -0.19216403 1.2586018 -0.77745724 -0.50947374
-0.7815172 -1.0321279 0.6796204 -0.71743715 -0.14032856 0.09913797 -0.16178165 0.4811434
-0.6291132 -0.036099892 0.3664709 0.24270706 -0.013728489 -0.36483943 -1.2674835 -0.46778938
-0.36781323 -0.07213429 0.08338613 0.36783162 -0.8841799 0.21013652 0.6379 -0.02812473
0.40207475 0.66261816 0.58924073 1.0608152 -0.59058195 -0.0081264265 -0.39807624 -0.6392129
-0.06655085 0.15612508 -0.80853003 -0.224414 0.16151026 0.1972124 -0.41972658 0.29172465
0.40330708 -0.46177107 -0.33954695 -0.19118753 -0.37298283 -0.27327397 -0.20319217 -0.16749127
-1.0381361 -0.5672898 -0.2337228 -0.91826814 0.50603163 0.09506714 -0.10817723 -0.9800884
-0.9395896 -0.5629005 -0.73627144 -0.6704588 -0.465985 -0.23370925 -0.30139408 -0.33355194
-0.11488443 -0.66033256 -0.6765287 -0.9079297 -0.30884922 0.63330656 0.12350435 -1.0578456
-0.6017048 -0.57693356 0.2218706 0.029596668 -0.5867344 -0.1008584 -0.3456733 -1.1783261
-0.22273362 -0.00036534923 -0.9480905 -0.72266006 -1.3054504 -0.78369373 0.99120575 -0.5455218
-0.5265965 -0.22663495 -0.8921424 -0.17042486 -0.6054346 -1.377663 -0.5884066 -0.07241562
-0.2927435 -0.46203613 1.2545208 -0.12923904 -1.3441744 -0.25687814 -0.99545205 -0.8660445

bias_hh_l0 f4 [200]
00000000: 3b29 94be b44b cebe b823 90bf 4584 49bf
00000010: 8b15 a7be 9620 38bf fe69 fd3e 4ed1 69bf
00000020: 02d8 43bf 28e3 d3be 5d6d 363e e06a 93bf
00000030: d426 25bf 7102 4cbf 779b 50bf c162 84bf
00000040: 1fa7 443f d3f7 35bf 5066 dfbe 2e57 8ebe
00000050: 43e8 81bf d455 433a 1303 9bbf ca06 823e
00000060: 885b 84bf 35e1 6fbf 38a7 cabf 6a0b d1be
00000070: e2df a9be cd90 1dbe 8eb4 6dbe ae0d 71bf
00000080: 112e cbbe 6e9c 8bbf 6a22 5dbf bfbe 90bf
00000090: b70f 11be 0d0f 95bf 73d1 6abf 0729 dfbe
000000a0: eb89 55bf 15de 9cbf fc4a 85be b0b9 ccbe
000000b0: 3f0c 0f3f 48eb ffbd 88d0 3d3f e114 473f
000000c0: f329 47be 114f 8cbf 0bba 0abf 3bbb debe
000000d0: f4e8 14bf c96a 7bbf 4544 e4be de09 ffbe
000000e0: f1a9 303f 8c8b 3abf 541f ddbf 79d9 48bf
000000f0: 5168 56bf e877 b8be 5fee 35bf 3b2d fcbe
00000100: 252c f5be 8ce3 e7be 731f abbf 9e8c d1be
00000110: ad2e 8dbe a7cf a03e f49d 47be 7791 aabe
00000120: 28f2 70be 91a8 5fbf 6565 08bf 6329 dbbe
00000130: 24d2 e33e b741 3bbf 6767 90bf 3ab7 6abd
00000140: 1e75 fdbe a7d5 58bf a02e 70bf ad67 f9be
00000150: 1ecd 0cbf 9e75 41bf 8786 57be d063 f9be
00000160: 8007 47bf 6b10 c03d 0a02 40bf e896 37bf
00000170: dc93 2fbe 07e6 9b3f c05b 48bf a562 06bf
00000180: 37ce 38bf e89b 47bf 7a37 323f b8c0 14bf
00000190: 4f07 34bd f666 33bd 297f d1be abdf df3e
000001a0: 7458 33bf 5106 40be be18 023f 7f18 6a3e
000001b0: d612 d83d 9d29 eabe f041 a9bf 7d1a 05bf
000001c0: 5c8e 95be d410 56bd 2311 06be 1195 cf3e
000001d0: 4534 66bf ff9a 163e 7639 f93e 51af 33be
000001e0: 2649 fd3e 730a 5b3f aa22 0c3f da5f 7e3f
000001f0: 3e28 0bbf 5c92 4e3e b6b6 a7be 1569 3ebf
00000200: f20c 1fbe 49e1 613e 8736 72bf 0501 efbe
00000210: bb7a dc3e 8d8a 833e 0314 c1be 5c05 0f3e
00000220: dc05 a83e 2070 d1be b5bb e8be 1885 92be
00000230: 588a 61be cd69 eebe 1a64 1dbe 610f 84bd
00000240: a25a 8cbf fe54 20bf d3bb 80be cf57 6fbf
00000250: 00ef 273f abaa 7f3c e034 89bd e2d1 87bf
00000260: 9ce5 67bf b587 edbe 214e 24bf 34dc febe
00000270: 3d71 debe 25a2 32be 5678 04bf c0dd 97be
00000280: 3a51 0d3e 9456 24bf 5e37 1abf 3141 71bf
00000290: 9c4f 2fbe 3d48 103f a014 913e 5324 9fbf
000002a0: f7ed 0dbf fb7f e5be ef00 123e 2d45 973d
000002b0: 1bb0 0ebf 44c7 91bd 1f65 d9be 7af2 99bf
000002c0: c738 58be bc86 953c f7c4 8dbf d9b1 27bf
000002d0: fc4e 9cbf 375b 59bf ce15 713f 0beb 29bf
000002e0: eb2b ebbe fca3 b6ba 70b1 64bf 53ac 54be
000002f0: a32e 17bf 9180 aebf 0273 27bf afad 91bd
00000300: 9d93 a0be b6b1 eabe 5f5f a83f 14d5 10bc
00000310: a613 96bf 1fee 02be 26cc 80bf 842f 3ebf
-0.28937706 -0.40292132 -1.12609 -0.7871745 -0.32633623 -0.7192472 0.49494928 -0.91335
-0.76501477 -0.41384244 0.17815156 -1.1516991 -0.6451237 -0.79691225 -0.8148722 -1.0342637
0.76817507 -0.71081275 -0.43632746 -0.27800888 -1.0149006 0.0007451449 -1.2110313 0.25395805
-1.0340433 -0.93703014 -1.5832281 -0.4082902 -0.33178622 -0.15387268 -0.23213407 -0.941615
-0.39683583 -1.0907114 -0.86380637 -1.1308211 -0.14166151 -1.1645218 -0.91725844 -0.4358599
-0.8341357 -1.2255274 -0.2603377 -0.39985418 0.5587806 -0.12496048 0.7414632 0.77766234
-0.19449596 -1.0961629 -0.5419013 -0.4350222 -0.5816796 -0.98209816 -0.44583336 -0.49812216
0.6900931 -0.7286918 -1.7275186 -0.78456837 -0.83752924 -0.3602898 -0.7106685 -0.49253258
-0.47885242 -0.45290792 -1.3368973 -0.40927595 -0.27574673 0.31408426 -0.19493848 -0.33314106
-0.23529875 -0.87366587 -0.53279716 -0.42805013 0.44496262 -0.7314715 -1.1281556 -0.057303645
-0.49503416 -0.8470101 -0.93821144 -0.4871191 -0.55000484 -0.75570095 -0.21047412 -0.48708963
-0.7774582 0.093781315 -0.7500311 -0.7171464 -0.17146248 1.2179574 -0.78265 -0.5249427
-0.7218966 -0.7797227 0.696159 -0.58106565 -0.043952283 -0.043799363 -0.40917328 0.43725333
-0.70056844 -0.1875241 0.50819004 0.22860907 0.10550468 -0.45734873 -1.3223248 -0.5199354
-0.29210174 -0.052262142 -0.13092475 0.40543416 -0.89923507 0.14707564 0.48676652 -0.17547347
0.4946987 0.8556282 0.54740393 0.9936501 -0.5435828 0.20173019 -0.32756585 -0.7437909
-0.15532282 0.22058596 -0.9461445 -0.46680465 0.43062386 0.25691643 -0.3771058 0.13966888
0.3281697 -0.40905857 -0.4545571 -0.28617167 -0.2202543 -0.46565095 -0.15370217 -0.06448246
-1.0965159 -0.6262969 -0.25143299 -0.9349336 0.6559906 0.015604655 -0.06699538 -1.0610926
-0.9058473 -0.463926 -0.64181715 -0.49777377 -0.4344577 -0.17444666 -0.5174612 -0.2966137
0.13800517 -0.6419461 -0.60240734 -0.942401 -0.17120212 0.56360227 0.28336048 -1.243296
-0.5544123 -0.44824204 0.14258169 0.07386241 -0.55737466 -0.07118085 -0.42459962 -1.2027123
-0.21115409 0.018252723 -1.1075734 -0.6550575 -1.2211604 -0.8490481 0.94173896 -0.6637427
-0.45931944 -0.0013934369 -0.8933325 -0.20768861 -0.59055537 -1.3632985 -0.65409863 -0.07113206
-0.3136262 -0.45838708 1.3154105 -0.008839864 -1.1724746 -0.12786148 -1.0062301 -0.74291253

weight f4 [1, 50]
00000000: 430e 0cbf fbb6 8ebd cc3e 1abf db3d a33b
00000010: 7b24 ed3d 2656 bcbc af47 993e 7684 50bd
00000020: 2f8b 083f dee3 153d 890f 343d bf77 403d
00000030: d044 b23d ed70 96bc caf0 163e 3af1 65be
00000040: bb33 163d a260 1fbe b06b 58bb 934b e03d
00000050: 3217 913e f561 8abd 183f a13e 591c c8bd
00000060: 34e8 adbd fbc6 a03c 2ebb 84bf fa56 f03b
00000070: ff8b f43d 06b4 a5bd 48f0 6b3f 3745 80be
00000080: 51dc babe 14ef 7ebd b427 9bbc 102d 62be
00000090: dd32 8bbd d60c b03c 73bd 913c 5b54 54be
000000a0: 952c 063d 191f 1f3e 95bb e3bd b848 3c3e
000000b0: 42e3 4ebd 8762 c3be 18b4 49be 9370 dd3c
000000c0: 3bc3 853d 326d 90bc
-0.5470926 -0.069684945 -0.6025207 0.004981739 0.11579224 -0.022990298 0.29937503 -0.050907575
0.5333738 0.036594264 0.043960128 0.0469892 0.08704531 -0.018364394 0.14740291 -0.22455302
0.036670428 -0.15564206 -0.003302317 0.10951915 0.2833801 -0.06756965 0.3149345 -0.09771032
-0.08491555 0.019626131 -1.0369623 0.007334587 0.11940765 -0.08090977 0.92163515 -0.25052807
-0.36496213 -0.06223972 -0.01893983 -0.22087502 -0.06796811 0.021490496 0.017790532 -0.20735304
0.03275736 0.15539207 -0.11119763 0.18387115 -0.0505097 -0.38161108 -0.19697607 0.027031219
0.06531378 -0.017630193

hidden_cell f4 [1, 20, 50]
00000000: 5d57 7f3f 9655 f8a8 59d2 d33c 93c6 a41c
00000010: 3a9f 02a4 f931 39aa f6ff 7f3f dc4d d936
00000020: 9b61 7536 0bf2 02a9 0000 0080 5242 072b
00000030: 384a 25b3 35ab 2330 6a3d 2831 0829 9cb7
00000040: ad0c c095 d923 742e d83b cd0d 5675 6bab
00000050: dc99 ef3a eba6 f230 bcf3 42bf 8f04 d313
00000060: 02e1 492c a5dc 0129 7aff 7f3f 3bed d422
00000070: 4ef4 da12 0000 80bf 85e5 0d33 b664 8a39
00000080: 5194 4d3f 612f 9a29 c04d 3c33 3f78 49b2
00000090: b371 1625 c223 c81a 4b31 da9e 3282 14b1
000000a0: 5599 8ab1 d355 451d ff34 dcb6 d115 ebae
000000b0: 50f0 ac88 b6f7 bfab 72f6 423f e14e 689d
000000c0: 41f6 3abf 7f1e 3aaa 8d08 a93b 5883 5b98
000000d0: 6e6b 992e 5edf 3d07 fa5d 1b20 1d90 049d
000000e0: 0000 803f ed2d 2824 50fd 1e3f 378d e496
000000f0: 0000 0080 daf4 4c1a 5160 8cb0 c0e1 c027
00000100: 9c0c fc28 cc0d cbbd 0300 0080 fe29 7728
00000110: 0600 0000 f6c8 8821 321f 843a 2edc 6b2a
00000120: 3cc1 98b1 0000 0000 cca3 4c26 0afd 721d
00000130: 0a98 b535 8889 350b 0000 0000 0000 80bf
00000140: a9f6 3e3f 4616 4c21 78e1 e634 18dc dc1e
00000150: d5bb 7530 3282 a8b2 ced6 8d19 f8fd 4e00
00000160: 90cc 3b8c 9801 7fbf 51d6 c3a4 203d c316
00000170: e5d6 84b8 f805 71bc 0000 0080 0ee7 81a4
00000180: b0eb 8537 35f3 2286 e911 1fbb dc3b 92a5
00000190: 24fc 693f fb31 14a8 a760 0b3b 8a1c ab1b
000001a0: c139 86a6 3981 7ba9 feff 7f3f 28f2 cc36
000001b0: ca0a ed38 df5f fda6 0000 0080 e48e 6029
000001c0: 6516 63b4 7da3 1d30 4a98 d530 694e 9cb9
000001d0: 4c3c 3f90 3bce 8f2e 8c5d e80e 2829 15ab
000001e0: 2eda bfba fbaa 2f31 bbbd 23bf 3173 fc10
000001f0: ea8a e22b 6e7e de29 8eb5 683f 44ab 4920
00000200: 9e20 a30e 0000 80bf 6cd6 c035 457f 5a35
00000210: 2b2d 3e3f e560 022a 3b63 4834 3bf5 95b3
00000220: 6677 b825 a255 5116 37f3 4f9f 2650 acb4
00000230: 3ef9 f1b0 1a15 441f f0ac dab6 b266 23b9
00000240: 7ca3 ac80 038d 9ead 4fa0 423f f5e3 be9d
00000250: 9f71 3ebf 7357 07ab ceb0 613f 99a3 0891
00000260: 90a7 3c33 062a 0000 9ad1 0c17 0c49 8598
00000270: 0000 803f a10d e31d 1cb2 b337 dd7c 0b8f
00000280: 0000 0080 82d8 6e14 913a 0bad 925d 5222
00000290: 7485 be27 dcd8 dbb6 0000 0080 cf0a 1722
000002a0: 0000 0000 d606 b39b 8ddc 3e3b 75a7 3a23
000002b0: 5296 e4bb 0000 0000 8ec0 a32a 42c4 8e94
000002c0: 1c0a 7f3f 68ce 2c06 0000 0000 0000 80bf
000002d0: 508d 4c37 e84c 3727 85de 1e3e 0187 1b17
000002e0: 21f9 8a2b b9f3 81ac 70c6 970d 0000 0000
000002f0: 6aab d801 2334 eeb5 2c2e bda0 5f78 c70b
00000300: 8041 7cb4 1557 4dbe 0000 0080 0e8e 419c
00000310: 5cd7 cf3c f301 0080 fe14 3fbf 5704 f79d
00000320: 2bd3 7e3f 66a1 7da2 0a98 593a 86d5 6114
00000330: 1fe1 cda0 867b bba5 0000 803f 8da9 9e34
00000340: 992b 7836 c40a 21a2 0000 0080 0b23 0a25
00000350: 94de 4db2 a6d2 f02c 6a79 ed2e 7bd9 9eb7
00000360: 6615 fe88 b371 482b 3915 d601 7d47 67a7
00000370: 4a34 29ba 9f37 c22d 9562 3fbf 643d 0f04
00000380: 2d08 f227 effd b924 8bff 7f3f 9e1b 581b
00000390: 86e5 2506 0000 80bf 264b 2e33 c7f1 0d35
000003a0: 9a6d 403f 0196 9725 1f94 8231 1bf3 9ab0
000003b0: 28ca 651f 8f67 1a11 3d7b bf98 8088 d3b1
000003c0: 046f aead 9c06 e118 6a7e d9b5 20ca beb2
000003d0: 0c00 0080 83e3 72a8 a1bb 423f c8b6 8195
000003e0: 8314 42bf d0c3 29a7 1fca 5c3f fd48 0980
000003f0: c476 eb2b 0000 0000 3d16 0c08 10a1 2a89
0.9974268 -2.7570648e-14 0.025857138 1.090394e-21 -2.8324127e-17 -1.6448639e-13 0.9999994 6.476168e-06
3.6564659e-06 -2.9075737e-14 -0.0 4.805367e-13 -3.8484558e-08 5.9542354e-10 2.4482127e-09 -1.8615756e-05
-7.756818e-26 5.5511016e-11 1.2648507e-30 -8.365161e-13 0.0018280107 1.7655258e-09 -0.7615316 5.3268383e-27
2.8688722e-12 2.8835133e-14 0.999992 5.7713893e-18 1.381796e-27 -1.0 3.3037868e-08 0.00026396447
0.8030444 6.847193e-14 4.3842874e-08 -1.1727081e-08 1.3048949e-16 8.277583e-23 -2.3102035e-20 -2.1610842e-09
-4.0337604e-09 2.6117103e-21 -6.5626805e-06 -1.0690438e-10 -1.0408371e-33 -1.364012e-12 0.76157296 -3.0745724e-21
-0.73032004 -1.6530699e-13 0.00515849 -2.8371398e-24 6.976718e-11 1.4284421e-34 1.3160105e-19 -1.754456e-21
1.0 3.6468094e-17 0.62105274 -3.6924506e-25 -0.0 4.2384e-23 -1.0213715e-09 5.3535464e-15
2.7983089e-14 -0.09914741 -4e-45 1.372036e-14 8e-45 9.268912e-19 0.0010080098 2.0948583e-13
-4.4457504e-09 0.0 7.0998704e-16 3.2159251e-21 1.35298e-06 3.49628e-32 0.0 -1.0
0.74595124 6.9147367e-19 4.3004889e-07 2.3384435e-20 8.9397406e-10 -1.961698e-08 1.4665817e-23 7.254276e-39
-1.4467514e-31 -0.99611807 -8.4930836e-17 3.1542524e-25 -6.334278e-05 -0.014710896 -0.0 -5.6336254e-17
1.5964586e-05 -3.0647494e-35 -0.002427215 -2.5367525e-16 0.9140036 -8.226488e-15 0.0021267326 2.830802e-22
-9.313772e-16 -5.584528e-14 0.9999999 6.1078645e-06 0.0001130305 -1.7581387e-15 -0.0 4.986193e-14
-2.114917e-07 5.73486e-10 1.5541073e-09 -0.0002981306 -3.771456e-29 6.539521e-11 5.7282498e-30 -5.299255e-13
-0.0014637166 2.5563043e-09 -0.6396138 9.9573955e-29 1.6096822e-12 9.8807125e-14 0.9090203 1.7082029e-19
4.021401e-30 -1.0 1.436752e-06 8.139653e-07 0.7428767 1.1579936e-13 1.8662551e-07 -6.98296e-08
3.199982e-16 1.6909907e-25 -4.4035138e-20 -3.2095812e-07 -1.7605897e-09 4.152207e-20 -6.517039e-06 -0.00015583148
-1.5854352e-38 -1.8025142e-11 0.7602586 -5.0528283e-21 -0.7439212 -4.8082995e-13 0.8816041 -1.0778921e-28
4.3924558e-08 1.5075e-41 4.5500994e-25 -3.4453453e-24 1.0 6.010049e-21 2.1421401e-05 -6.877277e-30
-0.0 1.2058628e-26 -7.91424e-12 2.8509843e-18 5.2880284e-15 -6.5519544e-06 -0.0 2.0470038e-18
0.0 -2.9617484e-22 0.0029123158 1.0118541e-17 -0.0069759274 0.0 2.9088228e-13 -1.4415746e-26
0.996248 3.2501248e-35 0.0 -1.0 1.2192249e-05 2.5438043e-15 0.15514572 5.02536e-25
9.874637e-13 -3.693459e-12 9.353866e-31 0.0 7.9591836e-38 -1.7747556e-06 -3.20484e-19 7.6833126e-32
-2.3493158e-07 -0.2005275 -0.0 -6.4041945e-22 0.025371246 -6.99e-43 -0.74641407 -6.5384843e-21
0.99540967 -3.4373337e-18 0.00083005487 1.1401707e-26 -3.4877323e-19 -3.2523032e-16 1.0 2.9553158e-07
3.6980257e-06 -2.1825268e-18 -0.0 1.1981465e-16 -1.1983179e-08 6.844597e-12 1.079908e-10 -1.893634e-05
-1.52921e-33 7.1212063e-13 7.864164e-38 -3.2096444e-15 -0.000645463 2.2079947e-11 -0.747598 1.6837758e-36
6.7177357e-15 8.066114e-17 0.999993 1.7876025e-22 3.1201678e-35 -1.0 4.058088e-08 5.2878426e-07
0.7516724 2.629597e-16 3.8003374e-09 -1.127407e-09 4.8659856e-20 1.2180369e-28 -4.949678e-24 -6.1564265e-09
-1.983081e-11 5.816781e-24 -1.6204551e-06 -2.2210827e-08 -1.7e-44 -1.3483032e-14 0.7606755 -5.239106e-26
-0.7581255 -2.3559612e-15 0.8624591 -8.52703e-40 1.6730718e-12 0.0 4.215586e-34 -2.0538737e-33

hidden_cell f4 [1, 20, 50]
00000000: 75a7 a342 9e4d 3ab4 d85f d43c 1822 ef2b
00000010: 9c2f ceb8 95b2 aebb 4298 db42 bdfd 7f3f
00000020: b350 943f f854 48b3 0ca0 649c 245d e72d
00000030: e17c e3be 232e 4437 fc5c 5131 4385 6dbf
00000040: 6430 8fb8 3581 7c2e 5673 de29 b85f a8b2
00000050: ed99 ef3a eba6 f230 43f6 7fbf 5619 b12d
00000060: ca89 dc2c 67a5 8434 b294 7f41 d60e 5a23
00000070: 4e50 ed2d 104c aec2 0000 803f 38de 8e39
00000080: be01 8e3f 9b8e ae35 023e 9442 9d86 d4b5
00000090: 967e 6d33 d7f1 171e a08e f5ad dfc9 bec2
000000a0: f3de 8ab1 31fe dc23 943a b0c2 8221 f7ae
000000b0: da98 0a9f 5ba6 9eb0 b6fc 7f3f b361 88b1
000000c0: d4e8 7fbf f8f2 08b5 7212 b042 2992 7fae
000000d0: c2cd 4331 1529 f71e ec03 7a3f 2ab4 acb8
000000e0: 7ea9 db42 7b47 542f 18da 1342 1914 78aa
000000f0: 3da6 6583 b2ea 4122 d454 7cbf e5f4 ba32
00000100: 403a 072d ffe3 7fbf 0e30 3eb2 082a 7728
00000110: 58f8 361d e71d 6e28 351f 843a 2edc 6b2a
00000120: b54e 9cb3 dc16 fb1b 0d9e fb2c c6e7 f52f
00000130: 1a98 b535 9f8d ac0f f2fa 5f21 aa2d b1c2
00000140: 0000 803f e92c 5b2a 745c 773f 5748 8530
00000150: bee8 9242 f727 b2b2 dba6 d131 22b9 5305
00000160: 86f1 51a4 7c1e b6c2 71fa c3a4 cfa2 2217
00000170: 072b a8c2 1c54 71bc 0612 1482 8a2c 9da4
00000180: 34ef 8537 acf3 b3a6 ff11 1fbb 1156 65b4
00000190: c8bd b142 d4d5 1cb4 89b5 343b 432c 202b
000001a0: 87b6 f5ba b576 6abb 6d2f db42 73f3 e93e
000001b0: 8a8e 983f c366 5eb2 629e 759b dbd1 912d
000001c0: 3c69 5ebf fd2a 4337 8609 ab31 1003 4abf
000001d0: 14b7 b6b6 7fb2 952e cd1b 7329 0dbe 1fb1
000001e0: 37da bfba fbaa 2f31 cff6 41bf 5744 b62c
000001f0: 100a cd2d d794 9035 15cd c23f b7e7 ee21
00000200: c95f 8d2c 40ea b4c2 0000 803f 3461 7436
00000210: 259b 7c3f 3e4b e735 54af 9542 28e1 acb5
00000220: 3381 1034 2b35 221a 301a a3ae 812a bac2
00000230: 1d0d f2b0 0f9f 0124 8749 b0c2 cb66 24b9
00000240: 198e e398 a18a 08b0 6730 7f3f 9e6f d8b1
00000250: b6f0 75bf 4514 aab5 4474 b642 892f d7aa
00000260: 7c8c 4133 9108 c418 359a d83b b89f 19b8
00000270: 7e78 dc42 a29a 782b ef64 ab41 51f7 5ca6
00000280: 0000 0080 a92a be1c 0be7 68bf e2e7 b52f
00000290: 306e 912a 4c8b 77bf 372e 04b1 5c0d 1722
000002a0: a6ef 7514 1ed3 39a6 b0dc 3e3b 75a7 3a23
000002b0: edd1 e4bb 51a4 9612 5f07 c130 7205 d1ab
000002c0: 0adb 4840 a6d1 8908 2a72 3e1d 6ffe b7c2
000002d0: 0000 803f be8d 8b2c 58fe 7f3f f062 a42c
000002e0: 76e1 9442 bc5a e6ad 5e4d fc2c 0000 0000
000002f0: ac09 6a1e 1784 a2c2 0538 bda0 a90c fd0d
00000300: 46c6 acc2 3229 50be 2200 0080 ff5c 789f
00000310: 32e3 cf3c f4a8 8da0 c0fd 76bf d37e c3b0
00000320: e2be ab42 e0fb bcb1 7759 5d3a 76f4 3627
00000330: b508 33b9 7628 e1ba 28f3 da42 e2fc 023e
00000340: c766 a13f cf29 d9af ab6e 7492 7301 ab29
00000350: b024 4cbf 335b 8535 0f14 8f2f b457 4cbf
00000360: 5f9b 22b6 5f72 4b2b 5c2a 6024 4b26 5eaf
00000370: 4c34 29ba 9f37 c22d 00ae 77bf a5fc f026
00000380: f3f0 092a dfed 1d33 8769 cc40 629d 721c
00000390: 5ee4 9329 77f6 b5c2 0000 803f 4ab6 be35
000003a0: 746d 7f3f 3e12 bb33 7921 8f42 f0ff 8eb3
000003b0: 9ccd be31 c558 3f15 c1a6 15ab d401 bdc2
000003c0: 177d aead af93 741e 6974 aec2 4c08 bfb2
000003d0: 8075 f590 f68c 92ac 0a71 7f3f 251e d6ad
000003e0: 6f54 7fbf 0ba7 06b4 dc3a ba42 ab9e 6ea2
000003f0: 30cf 182c 4f2c c009 7ef5 123b 0644 a5b5
81.827065 -1.7350837e-07 0.025924608 1.6991434e-12 -9.8317134e-05 -0.005331347 109.79738 0.9999655
1.1587127 -4.6643407e-08 -7.564573e-22 2.6303022e-11 -0.44431213 1.1693252e-05 3.0466358e-09 -0.92781466
-6.827785e-05 5.7412925e-11 9.878788e-14 -1.9601302e-08 0.0018280126 1.7655258e-09 -0.9998514 2.0133822e-11
6.2680737e-12 2.4707262e-07 15.973803 1.1820945e-17 2.6979443e-11 -87.14856 1.0 0.00027249916
1.1094282 1.3005514e-06 74.12111 -1.5834408e-06 5.5295992e-08 8.043885e-21 -2.7916613e-11 -95.39428
-4.041675e-09 2.3960102e-17 -88.11441 -1.1238212e-10 -2.9349073e-20 -1.1543294e-09 0.9999498 -3.969228e-09
-0.9996464 -5.1017514e-07 88.036026 -5.8110104e-11 2.8493194e-09 2.6169133e-20 0.97662234 -8.235157e-05
109.83104 1.9306683e-10 36.962982 -2.2033798e-13 -6.7487884e-37 2.6280624e-18 -0.9856694 2.1764615e-08
7.686796e-12 -0.9995727 -1.1070382e-08 1.37203684e-14 2.421589e-21 1.3218138e-14 0.0010080101 2.0948583e-13
-7.278633e-08 4.153924e-22 7.1513962e-12 4.4729925e-10 1.3529818e-06 1.701506e-29 7.588746e-19 -88.58919
1.0 1.9466689e-13 0.9662545 9.697584e-10 73.454575 -2.0740101e-08 6.10167e-09 9.955176e-36
-4.552423e-17 -91.05954 -8.4992034e-17 5.2550516e-25 -84.08404 -0.014729526 -1.0878495e-37 -6.816335e-17
1.5966223e-05 -1.2486667e-15 -0.00242722 -2.1358598e-07 88.87067 -1.4606422e-07 0.0027574024 5.6904844e-13
-0.0018746414 -0.0035776321 109.59263 0.4569355 1.19185 -1.2945466e-08 -2.0317101e-22 1.6577786e-11
-0.86879325 1.1632915e-05 4.9778377e-09 -0.78910923 -5.445336e-06 6.807443e-11 5.3980952e-14 -2.3245577e-09
-0.0014637177 2.5563043e-09 -0.75767225 5.1803384e-12 2.331027e-11 1.0772154e-06 1.5218836 1.6188842e-18
4.0180953e-12 -90.45752 1.0 3.6415413e-06 0.9867423 1.723274e-06 74.84244 -1.2880528e-06
1.3458047e-07 3.3543764e-23 -7.417034e-11 -93.083015 -1.7611544e-09 2.8107144e-17 -88.14361 -0.00015678552
-5.8821607e-24 -4.9673515e-10 0.9968323 -6.299117e-09 -0.9607042 -1.2671886e-06 91.22708 -3.8224656e-13
4.5064084e-08 5.0673462e-24 0.00661018 -3.6626792e-05 110.23534 8.8321895e-13 21.424284 -7.666301e-16
-0.0 1.2584173e-21 -0.90977544 3.308847e-10 2.5833632e-13 -0.96696925 -1.9234798e-09 2.0471388e-18
1.2416601e-26 -6.4470886e-16 0.002912324 1.0118541e-17 -0.006983033 9.506838e-28 1.4044693e-09 -1.4851855e-12
3.138369 8.294676e-34 2.5205312e-21 -91.99694 1.0 3.966354e-12 0.9999747 4.6721446e-12
74.44035 -2.6188267e-11 7.1708603e-12 0.0 1.2389857e-20 -81.25799 -3.2054916e-19 1.5595377e-30
-86.38725 -0.20328215 -4.8e-44 -5.2592967e-20 0.02537689 -2.3998133e-19 -0.9648094 -1.4224163e-09
85.87282 -5.500155e-09 0.0008443812 2.5390096e-15 -0.00017074014 -0.0017178196 109.474915 0.1279178
1.260949 -3.9501777e-10 -7.7129233e-28 7.594177e-14 -0.7974348 9.935815e-07 2.60258e-10 -0.79821324
-2.423032e-06 7.227881e-13 4.8608137e-17 -2.0204387e-10 -0.0006454631 2.2079947e-11 -0.9674988 1.6721825e-15
1.225164e-13 3.6770754e-08 6.3878818 8.0274496e-22 6.567727e-14 -90.98138 1.0 1.4209156e-06
0.9977639 8.711184e-08 71.56538 -6.658945e-08 5.553103e-09 3.864217e-26 -5.316685e-13 -94.50357
-1.983706e-11 1.2947793e-20 -87.22736 -2.22391e-08 -9.68165e-29 -4.1652194e-12 0.9978186 -2.434237e-11
-0.9973821 -1.2540492e-07 93.11496 -3.2339013e-18 2.1715511e-12 4.6263986e-33 0.0022424157 -1.2313255e-06
